<?xml version="1.0" ?>
<net name="facenet-20180408-102900" version="10">
	<layers>
		<layer id="0" name="image_batch/placeholder_port_0" type="Parameter" version="opset1">
			<data element_type="f16" shape="1, 3, 160, 160"/>
			<output>
				<port id="0" names="image_batch" precision="FP16">
					<dim>1</dim>
					<dim>3</dim>
					<dim>160</dim>
					<dim>160</dim>
				</port>
			</output>
		</layer>
		<layer id="1" name="data_mul_3490151079" type="Const" version="opset1">
			<data element_type="f16" offset="0" shape="1, 1, 1, 1" size="2"/>
			<output>
				<port id="0" precision="FP16">
					<dim>1</dim>
					<dim>1</dim>
					<dim>1</dim>
					<dim>1</dim>
				</port>
			</output>
		</layer>
		<layer id="2" name="image_batch/placeholder_port_0/scale/Fused_Mul_" type="Multiply" version="opset1">
			<data auto_broadcast="numpy"/>
			<input>
				<port id="0" precision="FP16">
					<dim>1</dim>
					<dim>3</dim>
					<dim>160</dim>
					<dim>160</dim>
				</port>
				<port id="1" precision="FP16">
					<dim>1</dim>
					<dim>1</dim>
					<dim>1</dim>
					<dim>1</dim>
				</port>
			</input>
			<output>
				<port id="2" precision="FP16">
					<dim>1</dim>
					<dim>3</dim>
					<dim>160</dim>
					<dim>160</dim>
				</port>
			</output>
		</layer>
		<layer id="3" name="data_add_34903" type="Const" version="opset1">
			<data element_type="f16" offset="2" shape="1, 3, 1, 1" size="6"/>
			<output>
				<port id="0" precision="FP16">
					<dim>1</dim>
					<dim>3</dim>
					<dim>1</dim>
					<dim>1</dim>
				</port>
			</output>
		</layer>
		<layer id="4" name="image_batch/placeholder_port_0/mean/Fused_Add_" type="Add" version="opset1">
			<data auto_broadcast="numpy"/>
			<input>
				<port id="0" precision="FP16">
					<dim>1</dim>
					<dim>3</dim>
					<dim>160</dim>
					<dim>160</dim>
				</port>
				<port id="1" precision="FP16">
					<dim>1</dim>
					<dim>3</dim>
					<dim>1</dim>
					<dim>1</dim>
				</port>
			</input>
			<output>
				<port id="2" names="image_batch:0,input:0" precision="FP16">
					<dim>1</dim>
					<dim>3</dim>
					<dim>160</dim>
					<dim>160</dim>
				</port>
			</output>
		</layer>
		<layer id="5" name="InceptionResnetV1/Conv2d_1a_3x3/BatchNorm/cond/FusedBatchNorm_1/mean/Fused_Mul__copy" type="Const" version="opset1">
			<data element_type="f16" offset="8" shape="32, 3, 3, 3" size="1728"/>
			<output>
				<port id="0" names="InceptionResnetV1/Conv2d_1a_3x3/weights/read:0" precision="FP16">
					<dim>32</dim>
					<dim>3</dim>
					<dim>3</dim>
					<dim>3</dim>
				</port>
			</output>
		</layer>
		<layer id="6" name="InceptionResnetV1/Conv2d_1a_3x3/Conv2D" type="Convolution" version="opset1">
			<data auto_pad="valid" dilations="1, 1" pads_begin="0, 0" pads_end="0, 0" strides="2, 2"/>
			<input>
				<port id="0" precision="FP16">
					<dim>1</dim>
					<dim>3</dim>
					<dim>160</dim>
					<dim>160</dim>
				</port>
				<port id="1" precision="FP16">
					<dim>32</dim>
					<dim>3</dim>
					<dim>3</dim>
					<dim>3</dim>
				</port>
			</input>
			<output>
				<port id="2" precision="FP16">
					<dim>1</dim>
					<dim>32</dim>
					<dim>79</dim>
					<dim>79</dim>
				</port>
			</output>
		</layer>
		<layer id="7" name="data_add_3490634911" type="Const" version="opset1">
			<data element_type="f16" offset="1736" shape="1, 32, 1, 1" size="64"/>
			<output>
				<port id="0" precision="FP16">
					<dim>1</dim>
					<dim>32</dim>
					<dim>1</dim>
					<dim>1</dim>
				</port>
			</output>
		</layer>
		<layer id="8" name="InceptionResnetV1/Conv2d_1a_3x3/BatchNorm/cond/FusedBatchNorm_1/variance/Fused_Add_" type="Add" version="opset1">
			<data auto_broadcast="numpy"/>
			<input>
				<port id="0" precision="FP16">
					<dim>1</dim>
					<dim>32</dim>
					<dim>79</dim>
					<dim>79</dim>
				</port>
				<port id="1" precision="FP16">
					<dim>1</dim>
					<dim>32</dim>
					<dim>1</dim>
					<dim>1</dim>
				</port>
			</input>
			<output>
				<port id="2" names="InceptionResnetV1/Conv2d_1a_3x3/BatchNorm/cond/FusedBatchNorm_1:0,InceptionResnetV1/Conv2d_1a_3x3/BatchNorm/cond/Merge:0,InceptionResnetV1/Conv2d_1a_3x3/BatchNorm/cond_1/Merge:0,InceptionResnetV1/Conv2d_1a_3x3/BatchNorm/cond_1/Switch_1:0" precision="FP16">
					<dim>1</dim>
					<dim>32</dim>
					<dim>79</dim>
					<dim>79</dim>
				</port>
			</output>
		</layer>
		<layer id="9" name="InceptionResnetV1/Conv2d_1a_3x3/Relu" type="ReLU" version="opset1">
			<input>
				<port id="0" precision="FP16">
					<dim>1</dim>
					<dim>32</dim>
					<dim>79</dim>
					<dim>79</dim>
				</port>
			</input>
			<output>
				<port id="1" names="InceptionResnetV1/Conv2d_1a_3x3/Relu:0" precision="FP16">
					<dim>1</dim>
					<dim>32</dim>
					<dim>79</dim>
					<dim>79</dim>
				</port>
			</output>
		</layer>
		<layer id="10" name="InceptionResnetV1/Conv2d_2a_3x3/BatchNorm/cond/FusedBatchNorm_1/mean/Fused_Mul__copy" type="Const" version="opset1">
			<data element_type="f16" offset="1800" shape="32, 32, 3, 3" size="18432"/>
			<output>
				<port id="0" names="InceptionResnetV1/Conv2d_2a_3x3/weights/read:0" precision="FP16">
					<dim>32</dim>
					<dim>32</dim>
					<dim>3</dim>
					<dim>3</dim>
				</port>
			</output>
		</layer>
		<layer id="11" name="InceptionResnetV1/Conv2d_2a_3x3/Conv2D" type="Convolution" version="opset1">
			<data auto_pad="valid" dilations="1, 1" pads_begin="0, 0" pads_end="0, 0" strides="1, 1"/>
			<input>
				<port id="0" precision="FP16">
					<dim>1</dim>
					<dim>32</dim>
					<dim>79</dim>
					<dim>79</dim>
				</port>
				<port id="1" precision="FP16">
					<dim>32</dim>
					<dim>32</dim>
					<dim>3</dim>
					<dim>3</dim>
				</port>
			</input>
			<output>
				<port id="2" precision="FP16">
					<dim>1</dim>
					<dim>32</dim>
					<dim>77</dim>
					<dim>77</dim>
				</port>
			</output>
		</layer>
		<layer id="12" name="data_add_3491434919" type="Const" version="opset1">
			<data element_type="f16" offset="20232" shape="1, 32, 1, 1" size="64"/>
			<output>
				<port id="0" precision="FP16">
					<dim>1</dim>
					<dim>32</dim>
					<dim>1</dim>
					<dim>1</dim>
				</port>
			</output>
		</layer>
		<layer id="13" name="InceptionResnetV1/Conv2d_2a_3x3/BatchNorm/cond/FusedBatchNorm_1/variance/Fused_Add_" type="Add" version="opset1">
			<data auto_broadcast="numpy"/>
			<input>
				<port id="0" precision="FP16">
					<dim>1</dim>
					<dim>32</dim>
					<dim>77</dim>
					<dim>77</dim>
				</port>
				<port id="1" precision="FP16">
					<dim>1</dim>
					<dim>32</dim>
					<dim>1</dim>
					<dim>1</dim>
				</port>
			</input>
			<output>
				<port id="2" names="InceptionResnetV1/Conv2d_2a_3x3/BatchNorm/cond/FusedBatchNorm_1:0,InceptionResnetV1/Conv2d_2a_3x3/BatchNorm/cond/Merge:0,InceptionResnetV1/Conv2d_2a_3x3/BatchNorm/cond_1/Merge:0,InceptionResnetV1/Conv2d_2a_3x3/BatchNorm/cond_1/Switch_1:0" precision="FP16">
					<dim>1</dim>
					<dim>32</dim>
					<dim>77</dim>
					<dim>77</dim>
				</port>
			</output>
		</layer>
		<layer id="14" name="InceptionResnetV1/Conv2d_2a_3x3/Relu" type="ReLU" version="opset1">
			<input>
				<port id="0" precision="FP16">
					<dim>1</dim>
					<dim>32</dim>
					<dim>77</dim>
					<dim>77</dim>
				</port>
			</input>
			<output>
				<port id="1" names="InceptionResnetV1/Conv2d_2a_3x3/Relu:0" precision="FP16">
					<dim>1</dim>
					<dim>32</dim>
					<dim>77</dim>
					<dim>77</dim>
				</port>
			</output>
		</layer>
		<layer id="15" name="InceptionResnetV1/Conv2d_2b_3x3/BatchNorm/cond/FusedBatchNorm_1/mean/Fused_Mul__copy" type="Const" version="opset1">
			<data element_type="f16" offset="20296" shape="64, 32, 3, 3" size="36864"/>
			<output>
				<port id="0" names="InceptionResnetV1/Conv2d_2b_3x3/weights/read:0" precision="FP16">
					<dim>64</dim>
					<dim>32</dim>
					<dim>3</dim>
					<dim>3</dim>
				</port>
			</output>
		</layer>
		<layer id="16" name="InceptionResnetV1/Conv2d_2b_3x3/Conv2D" type="Convolution" version="opset1">
			<data auto_pad="same_upper" dilations="1, 1" pads_begin="1, 1" pads_end="1, 1" strides="1, 1"/>
			<input>
				<port id="0" precision="FP16">
					<dim>1</dim>
					<dim>32</dim>
					<dim>77</dim>
					<dim>77</dim>
				</port>
				<port id="1" precision="FP16">
					<dim>64</dim>
					<dim>32</dim>
					<dim>3</dim>
					<dim>3</dim>
				</port>
			</input>
			<output>
				<port id="2" precision="FP16">
					<dim>1</dim>
					<dim>64</dim>
					<dim>77</dim>
					<dim>77</dim>
				</port>
			</output>
		</layer>
		<layer id="17" name="data_add_3492234927" type="Const" version="opset1">
			<data element_type="f16" offset="57160" shape="1, 64, 1, 1" size="128"/>
			<output>
				<port id="0" precision="FP16">
					<dim>1</dim>
					<dim>64</dim>
					<dim>1</dim>
					<dim>1</dim>
				</port>
			</output>
		</layer>
		<layer id="18" name="InceptionResnetV1/Conv2d_2b_3x3/BatchNorm/cond/FusedBatchNorm_1/variance/Fused_Add_" type="Add" version="opset1">
			<data auto_broadcast="numpy"/>
			<input>
				<port id="0" precision="FP16">
					<dim>1</dim>
					<dim>64</dim>
					<dim>77</dim>
					<dim>77</dim>
				</port>
				<port id="1" precision="FP16">
					<dim>1</dim>
					<dim>64</dim>
					<dim>1</dim>
					<dim>1</dim>
				</port>
			</input>
			<output>
				<port id="2" names="InceptionResnetV1/Conv2d_2b_3x3/BatchNorm/cond/FusedBatchNorm_1:0,InceptionResnetV1/Conv2d_2b_3x3/BatchNorm/cond/Merge:0,InceptionResnetV1/Conv2d_2b_3x3/BatchNorm/cond_1/Merge:0,InceptionResnetV1/Conv2d_2b_3x3/BatchNorm/cond_1/Switch_1:0" precision="FP16">
					<dim>1</dim>
					<dim>64</dim>
					<dim>77</dim>
					<dim>77</dim>
				</port>
			</output>
		</layer>
		<layer id="19" name="InceptionResnetV1/Conv2d_2b_3x3/Relu" type="ReLU" version="opset1">
			<input>
				<port id="0" precision="FP16">
					<dim>1</dim>
					<dim>64</dim>
					<dim>77</dim>
					<dim>77</dim>
				</port>
			</input>
			<output>
				<port id="1" names="InceptionResnetV1/Conv2d_2b_3x3/Relu:0" precision="FP16">
					<dim>1</dim>
					<dim>64</dim>
					<dim>77</dim>
					<dim>77</dim>
				</port>
			</output>
		</layer>
		<layer id="20" name="InceptionResnetV1/MaxPool_3a_3x3/MaxPool" type="MaxPool" version="opset1">
			<data auto_pad="valid" kernel="3, 3" pads_begin="0, 0" pads_end="0, 0" rounding_type="floor" strides="2, 2"/>
			<input>
				<port id="0" precision="FP16">
					<dim>1</dim>
					<dim>64</dim>
					<dim>77</dim>
					<dim>77</dim>
				</port>
			</input>
			<output>
				<port id="1" names="InceptionResnetV1/MaxPool_3a_3x3/MaxPool:0" precision="FP16">
					<dim>1</dim>
					<dim>64</dim>
					<dim>38</dim>
					<dim>38</dim>
				</port>
			</output>
		</layer>
		<layer id="21" name="InceptionResnetV1/Conv2d_3b_1x1/BatchNorm/cond/FusedBatchNorm_1/mean/Fused_Mul__copy" type="Const" version="opset1">
			<data element_type="f16" offset="57288" shape="80, 64, 1, 1" size="10240"/>
			<output>
				<port id="0" names="InceptionResnetV1/Conv2d_3b_1x1/weights/read:0" precision="FP16">
					<dim>80</dim>
					<dim>64</dim>
					<dim>1</dim>
					<dim>1</dim>
				</port>
			</output>
		</layer>
		<layer id="22" name="InceptionResnetV1/Conv2d_3b_1x1/Conv2D" type="Convolution" version="opset1">
			<data auto_pad="valid" dilations="1, 1" pads_begin="0, 0" pads_end="0, 0" strides="1, 1"/>
			<input>
				<port id="0" precision="FP16">
					<dim>1</dim>
					<dim>64</dim>
					<dim>38</dim>
					<dim>38</dim>
				</port>
				<port id="1" precision="FP16">
					<dim>80</dim>
					<dim>64</dim>
					<dim>1</dim>
					<dim>1</dim>
				</port>
			</input>
			<output>
				<port id="2" precision="FP16">
					<dim>1</dim>
					<dim>80</dim>
					<dim>38</dim>
					<dim>38</dim>
				</port>
			</output>
		</layer>
		<layer id="23" name="data_add_3493034935" type="Const" version="opset1">
			<data element_type="f16" offset="67528" shape="1, 80, 1, 1" size="160"/>
			<output>
				<port id="0" precision="FP16">
					<dim>1</dim>
					<dim>80</dim>
					<dim>1</dim>
					<dim>1</dim>
				</port>
			</output>
		</layer>
		<layer id="24" name="InceptionResnetV1/Conv2d_3b_1x1/BatchNorm/cond/FusedBatchNorm_1/variance/Fused_Add_" type="Add" version="opset1">
			<data auto_broadcast="numpy"/>
			<input>
				<port id="0" precision="FP16">
					<dim>1</dim>
					<dim>80</dim>
					<dim>38</dim>
					<dim>38</dim>
				</port>
				<port id="1" precision="FP16">
					<dim>1</dim>
					<dim>80</dim>
					<dim>1</dim>
					<dim>1</dim>
				</port>
			</input>
			<output>
				<port id="2" names="InceptionResnetV1/Conv2d_3b_1x1/BatchNorm/cond/FusedBatchNorm_1:0,InceptionResnetV1/Conv2d_3b_1x1/BatchNorm/cond/Merge:0,InceptionResnetV1/Conv2d_3b_1x1/BatchNorm/cond_1/Merge:0,InceptionResnetV1/Conv2d_3b_1x1/BatchNorm/cond_1/Switch_1:0" precision="FP16">
					<dim>1</dim>
					<dim>80</dim>
					<dim>38</dim>
					<dim>38</dim>
				</port>
			</output>
		</layer>
		<layer id="25" name="InceptionResnetV1/Conv2d_3b_1x1/Relu" type="ReLU" version="opset1">
			<input>
				<port id="0" precision="FP16">
					<dim>1</dim>
					<dim>80</dim>
					<dim>38</dim>
					<dim>38</dim>
				</port>
			</input>
			<output>
				<port id="1" names="InceptionResnetV1/Conv2d_3b_1x1/Relu:0" precision="FP16">
					<dim>1</dim>
					<dim>80</dim>
					<dim>38</dim>
					<dim>38</dim>
				</port>
			</output>
		</layer>
		<layer id="26" name="InceptionResnetV1/Conv2d_4a_3x3/BatchNorm/cond/FusedBatchNorm_1/mean/Fused_Mul__copy" type="Const" version="opset1">
			<data element_type="f16" offset="67688" shape="192, 80, 3, 3" size="276480"/>
			<output>
				<port id="0" names="InceptionResnetV1/Conv2d_4a_3x3/weights/read:0" precision="FP16">
					<dim>192</dim>
					<dim>80</dim>
					<dim>3</dim>
					<dim>3</dim>
				</port>
			</output>
		</layer>
		<layer id="27" name="InceptionResnetV1/Conv2d_4a_3x3/Conv2D" type="Convolution" version="opset1">
			<data auto_pad="valid" dilations="1, 1" pads_begin="0, 0" pads_end="0, 0" strides="1, 1"/>
			<input>
				<port id="0" precision="FP16">
					<dim>1</dim>
					<dim>80</dim>
					<dim>38</dim>
					<dim>38</dim>
				</port>
				<port id="1" precision="FP16">
					<dim>192</dim>
					<dim>80</dim>
					<dim>3</dim>
					<dim>3</dim>
				</port>
			</input>
			<output>
				<port id="2" precision="FP16">
					<dim>1</dim>
					<dim>192</dim>
					<dim>36</dim>
					<dim>36</dim>
				</port>
			</output>
		</layer>
		<layer id="28" name="data_add_3493834943" type="Const" version="opset1">
			<data element_type="f16" offset="344168" shape="1, 192, 1, 1" size="384"/>
			<output>
				<port id="0" precision="FP16">
					<dim>1</dim>
					<dim>192</dim>
					<dim>1</dim>
					<dim>1</dim>
				</port>
			</output>
		</layer>
		<layer id="29" name="InceptionResnetV1/Conv2d_4a_3x3/BatchNorm/cond/FusedBatchNorm_1/variance/Fused_Add_" type="Add" version="opset1">
			<data auto_broadcast="numpy"/>
			<input>
				<port id="0" precision="FP16">
					<dim>1</dim>
					<dim>192</dim>
					<dim>36</dim>
					<dim>36</dim>
				</port>
				<port id="1" precision="FP16">
					<dim>1</dim>
					<dim>192</dim>
					<dim>1</dim>
					<dim>1</dim>
				</port>
			</input>
			<output>
				<port id="2" names="InceptionResnetV1/Conv2d_4a_3x3/BatchNorm/cond/FusedBatchNorm_1:0,InceptionResnetV1/Conv2d_4a_3x3/BatchNorm/cond/Merge:0,InceptionResnetV1/Conv2d_4a_3x3/BatchNorm/cond_1/Merge:0,InceptionResnetV1/Conv2d_4a_3x3/BatchNorm/cond_1/Switch_1:0" precision="FP16">
					<dim>1</dim>
					<dim>192</dim>
					<dim>36</dim>
					<dim>36</dim>
				</port>
			</output>
		</layer>
		<layer id="30" name="InceptionResnetV1/Conv2d_4a_3x3/Relu" type="ReLU" version="opset1">
			<input>
				<port id="0" precision="FP16">
					<dim>1</dim>
					<dim>192</dim>
					<dim>36</dim>
					<dim>36</dim>
				</port>
			</input>
			<output>
				<port id="1" names="InceptionResnetV1/Conv2d_4a_3x3/Relu:0" precision="FP16">
					<dim>1</dim>
					<dim>192</dim>
					<dim>36</dim>
					<dim>36</dim>
				</port>
			</output>
		</layer>
		<layer id="31" name="InceptionResnetV1/Conv2d_4b_3x3/BatchNorm/cond/FusedBatchNorm_1/mean/Fused_Mul__copy" type="Const" version="opset1">
			<data element_type="f16" offset="344552" shape="256, 192, 3, 3" size="884736"/>
			<output>
				<port id="0" names="InceptionResnetV1/Conv2d_4b_3x3/weights/read:0" precision="FP16">
					<dim>256</dim>
					<dim>192</dim>
					<dim>3</dim>
					<dim>3</dim>
				</port>
			</output>
		</layer>
		<layer id="32" name="InceptionResnetV1/Conv2d_4b_3x3/Conv2D" type="Convolution" version="opset1">
			<data auto_pad="valid" dilations="1, 1" pads_begin="0, 0" pads_end="0, 0" strides="2, 2"/>
			<input>
				<port id="0" precision="FP16">
					<dim>1</dim>
					<dim>192</dim>
					<dim>36</dim>
					<dim>36</dim>
				</port>
				<port id="1" precision="FP16">
					<dim>256</dim>
					<dim>192</dim>
					<dim>3</dim>
					<dim>3</dim>
				</port>
			</input>
			<output>
				<port id="2" precision="FP16">
					<dim>1</dim>
					<dim>256</dim>
					<dim>17</dim>
					<dim>17</dim>
				</port>
			</output>
		</layer>
		<layer id="33" name="data_add_3494634951" type="Const" version="opset1">
			<data element_type="f16" offset="1229288" shape="1, 256, 1, 1" size="512"/>
			<output>
				<port id="0" precision="FP16">
					<dim>1</dim>
					<dim>256</dim>
					<dim>1</dim>
					<dim>1</dim>
				</port>
			</output>
		</layer>
		<layer id="34" name="InceptionResnetV1/Conv2d_4b_3x3/BatchNorm/cond/FusedBatchNorm_1/variance/Fused_Add_" type="Add" version="opset1">
			<data auto_broadcast="numpy"/>
			<input>
				<port id="0" precision="FP16">
					<dim>1</dim>
					<dim>256</dim>
					<dim>17</dim>
					<dim>17</dim>
				</port>
				<port id="1" precision="FP16">
					<dim>1</dim>
					<dim>256</dim>
					<dim>1</dim>
					<dim>1</dim>
				</port>
			</input>
			<output>
				<port id="2" names="InceptionResnetV1/Conv2d_4b_3x3/BatchNorm/cond/FusedBatchNorm_1:0,InceptionResnetV1/Conv2d_4b_3x3/BatchNorm/cond/Merge:0,InceptionResnetV1/Conv2d_4b_3x3/BatchNorm/cond_1/Merge:0,InceptionResnetV1/Conv2d_4b_3x3/BatchNorm/cond_1/Switch_1:0" precision="FP16">
					<dim>1</dim>
					<dim>256</dim>
					<dim>17</dim>
					<dim>17</dim>
				</port>
			</output>
		</layer>
		<layer id="35" name="InceptionResnetV1/Conv2d_4b_3x3/Relu" type="ReLU" version="opset1">
			<input>
				<port id="0" precision="FP16">
					<dim>1</dim>
					<dim>256</dim>
					<dim>17</dim>
					<dim>17</dim>
				</port>
			</input>
			<output>
				<port id="1" names="InceptionResnetV1/Conv2d_4b_3x3/Relu:0" precision="FP16">
					<dim>1</dim>
					<dim>256</dim>
					<dim>17</dim>
					<dim>17</dim>
				</port>
			</output>
		</layer>
		<layer id="36" name="InceptionResnetV1/Repeat/block35_1/Branch_0/Conv2d_1x1/BatchNorm/cond/FusedBatchNorm_1/mean/Fused_Mul__copy" type="Const" version="opset1">
			<data element_type="f16" offset="1229800" shape="32, 256, 1, 1" size="16384"/>
			<output>
				<port id="0" names="InceptionResnetV1/Repeat/block35_1/Branch_0/Conv2d_1x1/weights/read:0" precision="FP16">
					<dim>32</dim>
					<dim>256</dim>
					<dim>1</dim>
					<dim>1</dim>
				</port>
			</output>
		</layer>
		<layer id="37" name="InceptionResnetV1/Repeat/block35_1/Branch_0/Conv2d_1x1/Conv2D" type="Convolution" version="opset1">
			<data auto_pad="same_upper" dilations="1, 1" pads_begin="0, 0" pads_end="0, 0" strides="1, 1"/>
			<input>
				<port id="0" precision="FP16">
					<dim>1</dim>
					<dim>256</dim>
					<dim>17</dim>
					<dim>17</dim>
				</port>
				<port id="1" precision="FP16">
					<dim>32</dim>
					<dim>256</dim>
					<dim>1</dim>
					<dim>1</dim>
				</port>
			</input>
			<output>
				<port id="2" precision="FP16">
					<dim>1</dim>
					<dim>32</dim>
					<dim>17</dim>
					<dim>17</dim>
				</port>
			</output>
		</layer>
		<layer id="38" name="data_add_3499434999" type="Const" version="opset1">
			<data element_type="f16" offset="1246184" shape="1, 32, 1, 1" size="64"/>
			<output>
				<port id="0" precision="FP16">
					<dim>1</dim>
					<dim>32</dim>
					<dim>1</dim>
					<dim>1</dim>
				</port>
			</output>
		</layer>
		<layer id="39" name="InceptionResnetV1/Repeat/block35_1/Branch_0/Conv2d_1x1/BatchNorm/cond/FusedBatchNorm_1/variance/Fused_Add_" type="Add" version="opset1">
			<data auto_broadcast="numpy"/>
			<input>
				<port id="0" precision="FP16">
					<dim>1</dim>
					<dim>32</dim>
					<dim>17</dim>
					<dim>17</dim>
				</port>
				<port id="1" precision="FP16">
					<dim>1</dim>
					<dim>32</dim>
					<dim>1</dim>
					<dim>1</dim>
				</port>
			</input>
			<output>
				<port id="2" names="InceptionResnetV1/Repeat/block35_1/Branch_0/Conv2d_1x1/BatchNorm/cond/FusedBatchNorm_1:0,InceptionResnetV1/Repeat/block35_1/Branch_0/Conv2d_1x1/BatchNorm/cond/Merge:0,InceptionResnetV1/Repeat/block35_1/Branch_0/Conv2d_1x1/BatchNorm/cond_1/Merge:0,InceptionResnetV1/Repeat/block35_1/Branch_0/Conv2d_1x1/BatchNorm/cond_1/Switch_1:0" precision="FP16">
					<dim>1</dim>
					<dim>32</dim>
					<dim>17</dim>
					<dim>17</dim>
				</port>
			</output>
		</layer>
		<layer id="40" name="InceptionResnetV1/Repeat/block35_1/Branch_0/Conv2d_1x1/Relu" type="ReLU" version="opset1">
			<input>
				<port id="0" precision="FP16">
					<dim>1</dim>
					<dim>32</dim>
					<dim>17</dim>
					<dim>17</dim>
				</port>
			</input>
			<output>
				<port id="1" names="InceptionResnetV1/Repeat/block35_1/Branch_0/Conv2d_1x1/Relu:0" precision="FP16">
					<dim>1</dim>
					<dim>32</dim>
					<dim>17</dim>
					<dim>17</dim>
				</port>
			</output>
		</layer>
		<layer id="41" name="InceptionResnetV1/Repeat/block35_1/Branch_1/Conv2d_0a_1x1/BatchNorm/cond/FusedBatchNorm_1/mean/Fused_Mul__copy" type="Const" version="opset1">
			<data element_type="f16" offset="1246248" shape="32, 256, 1, 1" size="16384"/>
			<output>
				<port id="0" names="InceptionResnetV1/Repeat/block35_1/Branch_1/Conv2d_0a_1x1/weights/read:0" precision="FP16">
					<dim>32</dim>
					<dim>256</dim>
					<dim>1</dim>
					<dim>1</dim>
				</port>
			</output>
		</layer>
		<layer id="42" name="InceptionResnetV1/Repeat/block35_1/Branch_1/Conv2d_0a_1x1/Conv2D" type="Convolution" version="opset1">
			<data auto_pad="same_upper" dilations="1, 1" pads_begin="0, 0" pads_end="0, 0" strides="1, 1"/>
			<input>
				<port id="0" precision="FP16">
					<dim>1</dim>
					<dim>256</dim>
					<dim>17</dim>
					<dim>17</dim>
				</port>
				<port id="1" precision="FP16">
					<dim>32</dim>
					<dim>256</dim>
					<dim>1</dim>
					<dim>1</dim>
				</port>
			</input>
			<output>
				<port id="2" precision="FP16">
					<dim>1</dim>
					<dim>32</dim>
					<dim>17</dim>
					<dim>17</dim>
				</port>
			</output>
		</layer>
		<layer id="43" name="data_add_3497834983" type="Const" version="opset1">
			<data element_type="f16" offset="1262632" shape="1, 32, 1, 1" size="64"/>
			<output>
				<port id="0" precision="FP16">
					<dim>1</dim>
					<dim>32</dim>
					<dim>1</dim>
					<dim>1</dim>
				</port>
			</output>
		</layer>
		<layer id="44" name="InceptionResnetV1/Repeat/block35_1/Branch_1/Conv2d_0a_1x1/BatchNorm/cond/FusedBatchNorm_1/variance/Fused_Add_" type="Add" version="opset1">
			<data auto_broadcast="numpy"/>
			<input>
				<port id="0" precision="FP16">
					<dim>1</dim>
					<dim>32</dim>
					<dim>17</dim>
					<dim>17</dim>
				</port>
				<port id="1" precision="FP16">
					<dim>1</dim>
					<dim>32</dim>
					<dim>1</dim>
					<dim>1</dim>
				</port>
			</input>
			<output>
				<port id="2" names="InceptionResnetV1/Repeat/block35_1/Branch_1/Conv2d_0a_1x1/BatchNorm/cond/FusedBatchNorm_1:0,InceptionResnetV1/Repeat/block35_1/Branch_1/Conv2d_0a_1x1/BatchNorm/cond/Merge:0,InceptionResnetV1/Repeat/block35_1/Branch_1/Conv2d_0a_1x1/BatchNorm/cond_1/Merge:0,InceptionResnetV1/Repeat/block35_1/Branch_1/Conv2d_0a_1x1/BatchNorm/cond_1/Switch_1:0" precision="FP16">
					<dim>1</dim>
					<dim>32</dim>
					<dim>17</dim>
					<dim>17</dim>
				</port>
			</output>
		</layer>
		<layer id="45" name="InceptionResnetV1/Repeat/block35_1/Branch_1/Conv2d_0a_1x1/Relu" type="ReLU" version="opset1">
			<input>
				<port id="0" precision="FP16">
					<dim>1</dim>
					<dim>32</dim>
					<dim>17</dim>
					<dim>17</dim>
				</port>
			</input>
			<output>
				<port id="1" names="InceptionResnetV1/Repeat/block35_1/Branch_1/Conv2d_0a_1x1/Relu:0" precision="FP16">
					<dim>1</dim>
					<dim>32</dim>
					<dim>17</dim>
					<dim>17</dim>
				</port>
			</output>
		</layer>
		<layer id="46" name="InceptionResnetV1/Repeat/block35_1/Branch_1/Conv2d_0b_3x3/BatchNorm/cond/FusedBatchNorm_1/mean/Fused_Mul__copy" type="Const" version="opset1">
			<data element_type="f16" offset="1262696" shape="32, 32, 3, 3" size="18432"/>
			<output>
				<port id="0" names="InceptionResnetV1/Repeat/block35_1/Branch_1/Conv2d_0b_3x3/weights/read:0" precision="FP16">
					<dim>32</dim>
					<dim>32</dim>
					<dim>3</dim>
					<dim>3</dim>
				</port>
			</output>
		</layer>
		<layer id="47" name="InceptionResnetV1/Repeat/block35_1/Branch_1/Conv2d_0b_3x3/Conv2D" type="Convolution" version="opset1">
			<data auto_pad="same_upper" dilations="1, 1" pads_begin="1, 1" pads_end="1, 1" strides="1, 1"/>
			<input>
				<port id="0" precision="FP16">
					<dim>1</dim>
					<dim>32</dim>
					<dim>17</dim>
					<dim>17</dim>
				</port>
				<port id="1" precision="FP16">
					<dim>32</dim>
					<dim>32</dim>
					<dim>3</dim>
					<dim>3</dim>
				</port>
			</input>
			<output>
				<port id="2" precision="FP16">
					<dim>1</dim>
					<dim>32</dim>
					<dim>17</dim>
					<dim>17</dim>
				</port>
			</output>
		</layer>
		<layer id="48" name="data_add_3498634991" type="Const" version="opset1">
			<data element_type="f16" offset="1281128" shape="1, 32, 1, 1" size="64"/>
			<output>
				<port id="0" precision="FP16">
					<dim>1</dim>
					<dim>32</dim>
					<dim>1</dim>
					<dim>1</dim>
				</port>
			</output>
		</layer>
		<layer id="49" name="InceptionResnetV1/Repeat/block35_1/Branch_1/Conv2d_0b_3x3/BatchNorm/cond/FusedBatchNorm_1/variance/Fused_Add_" type="Add" version="opset1">
			<data auto_broadcast="numpy"/>
			<input>
				<port id="0" precision="FP16">
					<dim>1</dim>
					<dim>32</dim>
					<dim>17</dim>
					<dim>17</dim>
				</port>
				<port id="1" precision="FP16">
					<dim>1</dim>
					<dim>32</dim>
					<dim>1</dim>
					<dim>1</dim>
				</port>
			</input>
			<output>
				<port id="2" names="InceptionResnetV1/Repeat/block35_1/Branch_1/Conv2d_0b_3x3/BatchNorm/cond/FusedBatchNorm_1:0,InceptionResnetV1/Repeat/block35_1/Branch_1/Conv2d_0b_3x3/BatchNorm/cond/Merge:0,InceptionResnetV1/Repeat/block35_1/Branch_1/Conv2d_0b_3x3/BatchNorm/cond_1/Merge:0,InceptionResnetV1/Repeat/block35_1/Branch_1/Conv2d_0b_3x3/BatchNorm/cond_1/Switch_1:0" precision="FP16">
					<dim>1</dim>
					<dim>32</dim>
					<dim>17</dim>
					<dim>17</dim>
				</port>
			</output>
		</layer>
		<layer id="50" name="InceptionResnetV1/Repeat/block35_1/Branch_1/Conv2d_0b_3x3/Relu" type="ReLU" version="opset1">
			<input>
				<port id="0" precision="FP16">
					<dim>1</dim>
					<dim>32</dim>
					<dim>17</dim>
					<dim>17</dim>
				</port>
			</input>
			<output>
				<port id="1" names="InceptionResnetV1/Repeat/block35_1/Branch_1/Conv2d_0b_3x3/Relu:0" precision="FP16">
					<dim>1</dim>
					<dim>32</dim>
					<dim>17</dim>
					<dim>17</dim>
				</port>
			</output>
		</layer>
		<layer id="51" name="InceptionResnetV1/Repeat/block35_1/Branch_2/Conv2d_0a_1x1/BatchNorm/cond/FusedBatchNorm_1/mean/Fused_Mul__copy" type="Const" version="opset1">
			<data element_type="f16" offset="1281192" shape="32, 256, 1, 1" size="16384"/>
			<output>
				<port id="0" names="InceptionResnetV1/Repeat/block35_1/Branch_2/Conv2d_0a_1x1/weights/read:0" precision="FP16">
					<dim>32</dim>
					<dim>256</dim>
					<dim>1</dim>
					<dim>1</dim>
				</port>
			</output>
		</layer>
		<layer id="52" name="InceptionResnetV1/Repeat/block35_1/Branch_2/Conv2d_0a_1x1/Conv2D" type="Convolution" version="opset1">
			<data auto_pad="same_upper" dilations="1, 1" pads_begin="0, 0" pads_end="0, 0" strides="1, 1"/>
			<input>
				<port id="0" precision="FP16">
					<dim>1</dim>
					<dim>256</dim>
					<dim>17</dim>
					<dim>17</dim>
				</port>
				<port id="1" precision="FP16">
					<dim>32</dim>
					<dim>256</dim>
					<dim>1</dim>
					<dim>1</dim>
				</port>
			</input>
			<output>
				<port id="2" precision="FP16">
					<dim>1</dim>
					<dim>32</dim>
					<dim>17</dim>
					<dim>17</dim>
				</port>
			</output>
		</layer>
		<layer id="53" name="data_add_3495434959" type="Const" version="opset1">
			<data element_type="f16" offset="1297576" shape="1, 32, 1, 1" size="64"/>
			<output>
				<port id="0" precision="FP16">
					<dim>1</dim>
					<dim>32</dim>
					<dim>1</dim>
					<dim>1</dim>
				</port>
			</output>
		</layer>
		<layer id="54" name="InceptionResnetV1/Repeat/block35_1/Branch_2/Conv2d_0a_1x1/BatchNorm/cond/FusedBatchNorm_1/variance/Fused_Add_" type="Add" version="opset1">
			<data auto_broadcast="numpy"/>
			<input>
				<port id="0" precision="FP16">
					<dim>1</dim>
					<dim>32</dim>
					<dim>17</dim>
					<dim>17</dim>
				</port>
				<port id="1" precision="FP16">
					<dim>1</dim>
					<dim>32</dim>
					<dim>1</dim>
					<dim>1</dim>
				</port>
			</input>
			<output>
				<port id="2" names="InceptionResnetV1/Repeat/block35_1/Branch_2/Conv2d_0a_1x1/BatchNorm/cond/FusedBatchNorm_1:0,InceptionResnetV1/Repeat/block35_1/Branch_2/Conv2d_0a_1x1/BatchNorm/cond/Merge:0,InceptionResnetV1/Repeat/block35_1/Branch_2/Conv2d_0a_1x1/BatchNorm/cond_1/Merge:0,InceptionResnetV1/Repeat/block35_1/Branch_2/Conv2d_0a_1x1/BatchNorm/cond_1/Switch_1:0" precision="FP16">
					<dim>1</dim>
					<dim>32</dim>
					<dim>17</dim>
					<dim>17</dim>
				</port>
			</output>
		</layer>
		<layer id="55" name="InceptionResnetV1/Repeat/block35_1/Branch_2/Conv2d_0a_1x1/Relu" type="ReLU" version="opset1">
			<input>
				<port id="0" precision="FP16">
					<dim>1</dim>
					<dim>32</dim>
					<dim>17</dim>
					<dim>17</dim>
				</port>
			</input>
			<output>
				<port id="1" names="InceptionResnetV1/Repeat/block35_1/Branch_2/Conv2d_0a_1x1/Relu:0" precision="FP16">
					<dim>1</dim>
					<dim>32</dim>
					<dim>17</dim>
					<dim>17</dim>
				</port>
			</output>
		</layer>
		<layer id="56" name="InceptionResnetV1/Repeat/block35_1/Branch_2/Conv2d_0b_3x3/BatchNorm/cond/FusedBatchNorm_1/mean/Fused_Mul__copy" type="Const" version="opset1">
			<data element_type="f16" offset="1297640" shape="32, 32, 3, 3" size="18432"/>
			<output>
				<port id="0" names="InceptionResnetV1/Repeat/block35_1/Branch_2/Conv2d_0b_3x3/weights/read:0" precision="FP16">
					<dim>32</dim>
					<dim>32</dim>
					<dim>3</dim>
					<dim>3</dim>
				</port>
			</output>
		</layer>
		<layer id="57" name="InceptionResnetV1/Repeat/block35_1/Branch_2/Conv2d_0b_3x3/Conv2D" type="Convolution" version="opset1">
			<data auto_pad="same_upper" dilations="1, 1" pads_begin="1, 1" pads_end="1, 1" strides="1, 1"/>
			<input>
				<port id="0" precision="FP16">
					<dim>1</dim>
					<dim>32</dim>
					<dim>17</dim>
					<dim>17</dim>
				</port>
				<port id="1" precision="FP16">
					<dim>32</dim>
					<dim>32</dim>
					<dim>3</dim>
					<dim>3</dim>
				</port>
			</input>
			<output>
				<port id="2" precision="FP16">
					<dim>1</dim>
					<dim>32</dim>
					<dim>17</dim>
					<dim>17</dim>
				</port>
			</output>
		</layer>
		<layer id="58" name="data_add_3496234967" type="Const" version="opset1">
			<data element_type="f16" offset="1316072" shape="1, 32, 1, 1" size="64"/>
			<output>
				<port id="0" precision="FP16">
					<dim>1</dim>
					<dim>32</dim>
					<dim>1</dim>
					<dim>1</dim>
				</port>
			</output>
		</layer>
		<layer id="59" name="InceptionResnetV1/Repeat/block35_1/Branch_2/Conv2d_0b_3x3/BatchNorm/cond/FusedBatchNorm_1/variance/Fused_Add_" type="Add" version="opset1">
			<data auto_broadcast="numpy"/>
			<input>
				<port id="0" precision="FP16">
					<dim>1</dim>
					<dim>32</dim>
					<dim>17</dim>
					<dim>17</dim>
				</port>
				<port id="1" precision="FP16">
					<dim>1</dim>
					<dim>32</dim>
					<dim>1</dim>
					<dim>1</dim>
				</port>
			</input>
			<output>
				<port id="2" names="InceptionResnetV1/Repeat/block35_1/Branch_2/Conv2d_0b_3x3/BatchNorm/cond/FusedBatchNorm_1:0,InceptionResnetV1/Repeat/block35_1/Branch_2/Conv2d_0b_3x3/BatchNorm/cond/Merge:0,InceptionResnetV1/Repeat/block35_1/Branch_2/Conv2d_0b_3x3/BatchNorm/cond_1/Merge:0,InceptionResnetV1/Repeat/block35_1/Branch_2/Conv2d_0b_3x3/BatchNorm/cond_1/Switch_1:0" precision="FP16">
					<dim>1</dim>
					<dim>32</dim>
					<dim>17</dim>
					<dim>17</dim>
				</port>
			</output>
		</layer>
		<layer id="60" name="InceptionResnetV1/Repeat/block35_1/Branch_2/Conv2d_0b_3x3/Relu" type="ReLU" version="opset1">
			<input>
				<port id="0" precision="FP16">
					<dim>1</dim>
					<dim>32</dim>
					<dim>17</dim>
					<dim>17</dim>
				</port>
			</input>
			<output>
				<port id="1" names="InceptionResnetV1/Repeat/block35_1/Branch_2/Conv2d_0b_3x3/Relu:0" precision="FP16">
					<dim>1</dim>
					<dim>32</dim>
					<dim>17</dim>
					<dim>17</dim>
				</port>
			</output>
		</layer>
		<layer id="61" name="InceptionResnetV1/Repeat/block35_1/Branch_2/Conv2d_0c_3x3/BatchNorm/cond/FusedBatchNorm_1/mean/Fused_Mul__copy" type="Const" version="opset1">
			<data element_type="f16" offset="1316136" shape="32, 32, 3, 3" size="18432"/>
			<output>
				<port id="0" names="InceptionResnetV1/Repeat/block35_1/Branch_2/Conv2d_0c_3x3/weights/read:0" precision="FP16">
					<dim>32</dim>
					<dim>32</dim>
					<dim>3</dim>
					<dim>3</dim>
				</port>
			</output>
		</layer>
		<layer id="62" name="InceptionResnetV1/Repeat/block35_1/Branch_2/Conv2d_0c_3x3/Conv2D" type="Convolution" version="opset1">
			<data auto_pad="same_upper" dilations="1, 1" pads_begin="1, 1" pads_end="1, 1" strides="1, 1"/>
			<input>
				<port id="0" precision="FP16">
					<dim>1</dim>
					<dim>32</dim>
					<dim>17</dim>
					<dim>17</dim>
				</port>
				<port id="1" precision="FP16">
					<dim>32</dim>
					<dim>32</dim>
					<dim>3</dim>
					<dim>3</dim>
				</port>
			</input>
			<output>
				<port id="2" precision="FP16">
					<dim>1</dim>
					<dim>32</dim>
					<dim>17</dim>
					<dim>17</dim>
				</port>
			</output>
		</layer>
		<layer id="63" name="data_add_3497034975" type="Const" version="opset1">
			<data element_type="f16" offset="1334568" shape="1, 32, 1, 1" size="64"/>
			<output>
				<port id="0" precision="FP16">
					<dim>1</dim>
					<dim>32</dim>
					<dim>1</dim>
					<dim>1</dim>
				</port>
			</output>
		</layer>
		<layer id="64" name="InceptionResnetV1/Repeat/block35_1/Branch_2/Conv2d_0c_3x3/BatchNorm/cond/FusedBatchNorm_1/variance/Fused_Add_" type="Add" version="opset1">
			<data auto_broadcast="numpy"/>
			<input>
				<port id="0" precision="FP16">
					<dim>1</dim>
					<dim>32</dim>
					<dim>17</dim>
					<dim>17</dim>
				</port>
				<port id="1" precision="FP16">
					<dim>1</dim>
					<dim>32</dim>
					<dim>1</dim>
					<dim>1</dim>
				</port>
			</input>
			<output>
				<port id="2" names="InceptionResnetV1/Repeat/block35_1/Branch_2/Conv2d_0c_3x3/BatchNorm/cond/FusedBatchNorm_1:0,InceptionResnetV1/Repeat/block35_1/Branch_2/Conv2d_0c_3x3/BatchNorm/cond/Merge:0,InceptionResnetV1/Repeat/block35_1/Branch_2/Conv2d_0c_3x3/BatchNorm/cond_1/Merge:0,InceptionResnetV1/Repeat/block35_1/Branch_2/Conv2d_0c_3x3/BatchNorm/cond_1/Switch_1:0" precision="FP16">
					<dim>1</dim>
					<dim>32</dim>
					<dim>17</dim>
					<dim>17</dim>
				</port>
			</output>
		</layer>
		<layer id="65" name="InceptionResnetV1/Repeat/block35_1/Branch_2/Conv2d_0c_3x3/Relu" type="ReLU" version="opset1">
			<input>
				<port id="0" precision="FP16">
					<dim>1</dim>
					<dim>32</dim>
					<dim>17</dim>
					<dim>17</dim>
				</port>
			</input>
			<output>
				<port id="1" names="InceptionResnetV1/Repeat/block35_1/Branch_2/Conv2d_0c_3x3/Relu:0" precision="FP16">
					<dim>1</dim>
					<dim>32</dim>
					<dim>17</dim>
					<dim>17</dim>
				</port>
			</output>
		</layer>
		<layer id="66" name="InceptionResnetV1/Repeat/block35_1/concat" type="Concat" version="opset1">
			<data axis="1"/>
			<input>
				<port id="0" precision="FP16">
					<dim>1</dim>
					<dim>32</dim>
					<dim>17</dim>
					<dim>17</dim>
				</port>
				<port id="1" precision="FP16">
					<dim>1</dim>
					<dim>32</dim>
					<dim>17</dim>
					<dim>17</dim>
				</port>
				<port id="2" precision="FP16">
					<dim>1</dim>
					<dim>32</dim>
					<dim>17</dim>
					<dim>17</dim>
				</port>
			</input>
			<output>
				<port id="3" names="InceptionResnetV1/Repeat/block35_1/concat:0" precision="FP16">
					<dim>1</dim>
					<dim>96</dim>
					<dim>17</dim>
					<dim>17</dim>
				</port>
			</output>
		</layer>
		<layer id="67" name="InceptionResnetV1/Repeat/block35_1/mul/Fused_Mul__copy" type="Const" version="opset1">
			<data element_type="f16" offset="1334632" shape="256, 96, 1, 1" size="49152"/>
			<output>
				<port id="0" names="InceptionResnetV1/Repeat/block35_1/Conv2d_1x1/weights/read:0" precision="FP16">
					<dim>256</dim>
					<dim>96</dim>
					<dim>1</dim>
					<dim>1</dim>
				</port>
			</output>
		</layer>
		<layer id="68" name="InceptionResnetV1/Repeat/block35_1/Conv2d_1x1/Conv2D" type="Convolution" version="opset1">
			<data auto_pad="same_upper" dilations="1, 1" pads_begin="0, 0" pads_end="0, 0" strides="1, 1"/>
			<input>
				<port id="0" precision="FP16">
					<dim>1</dim>
					<dim>96</dim>
					<dim>17</dim>
					<dim>17</dim>
				</port>
				<port id="1" precision="FP16">
					<dim>256</dim>
					<dim>96</dim>
					<dim>1</dim>
					<dim>1</dim>
				</port>
			</input>
			<output>
				<port id="2" precision="FP16">
					<dim>1</dim>
					<dim>256</dim>
					<dim>17</dim>
					<dim>17</dim>
				</port>
			</output>
		</layer>
		<layer id="69" name="data_add_3500235007" type="Const" version="opset1">
			<data element_type="f16" offset="1383784" shape="1, 256, 1, 1" size="512"/>
			<output>
				<port id="0" precision="FP16">
					<dim>1</dim>
					<dim>256</dim>
					<dim>1</dim>
					<dim>1</dim>
				</port>
			</output>
		</layer>
		<layer id="70" name="InceptionResnetV1/Repeat/block35_1/Conv2d_1x1/BiasAdd/Add/Fused_Add_" type="Add" version="opset1">
			<data auto_broadcast="numpy"/>
			<input>
				<port id="0" precision="FP16">
					<dim>1</dim>
					<dim>256</dim>
					<dim>17</dim>
					<dim>17</dim>
				</port>
				<port id="1" precision="FP16">
					<dim>1</dim>
					<dim>256</dim>
					<dim>1</dim>
					<dim>1</dim>
				</port>
			</input>
			<output>
				<port id="2" names="InceptionResnetV1/Repeat/block35_1/mul:0" precision="FP16">
					<dim>1</dim>
					<dim>256</dim>
					<dim>17</dim>
					<dim>17</dim>
				</port>
			</output>
		</layer>
		<layer id="71" name="InceptionResnetV1/Repeat/block35_1/add" type="Add" version="opset1">
			<data auto_broadcast="numpy"/>
			<input>
				<port id="0" precision="FP16">
					<dim>1</dim>
					<dim>256</dim>
					<dim>17</dim>
					<dim>17</dim>
				</port>
				<port id="1" precision="FP16">
					<dim>1</dim>
					<dim>256</dim>
					<dim>17</dim>
					<dim>17</dim>
				</port>
			</input>
			<output>
				<port id="2" names="InceptionResnetV1/Repeat/block35_1/add:0" precision="FP16">
					<dim>1</dim>
					<dim>256</dim>
					<dim>17</dim>
					<dim>17</dim>
				</port>
			</output>
		</layer>
		<layer id="72" name="InceptionResnetV1/Repeat/block35_1/Relu" type="ReLU" version="opset1">
			<input>
				<port id="0" precision="FP16">
					<dim>1</dim>
					<dim>256</dim>
					<dim>17</dim>
					<dim>17</dim>
				</port>
			</input>
			<output>
				<port id="1" names="InceptionResnetV1/Repeat/block35_1/Relu:0" precision="FP16">
					<dim>1</dim>
					<dim>256</dim>
					<dim>17</dim>
					<dim>17</dim>
				</port>
			</output>
		</layer>
		<layer id="73" name="InceptionResnetV1/Repeat/block35_2/Branch_0/Conv2d_1x1/BatchNorm/cond/FusedBatchNorm_1/mean/Fused_Mul__copy" type="Const" version="opset1">
			<data element_type="f16" offset="1384296" shape="32, 256, 1, 1" size="16384"/>
			<output>
				<port id="0" names="InceptionResnetV1/Repeat/block35_2/Branch_0/Conv2d_1x1/weights/read:0" precision="FP16">
					<dim>32</dim>
					<dim>256</dim>
					<dim>1</dim>
					<dim>1</dim>
				</port>
			</output>
		</layer>
		<layer id="74" name="InceptionResnetV1/Repeat/block35_2/Branch_0/Conv2d_1x1/Conv2D" type="Convolution" version="opset1">
			<data auto_pad="same_upper" dilations="1, 1" pads_begin="0, 0" pads_end="0, 0" strides="1, 1"/>
			<input>
				<port id="0" precision="FP16">
					<dim>1</dim>
					<dim>256</dim>
					<dim>17</dim>
					<dim>17</dim>
				</port>
				<port id="1" precision="FP16">
					<dim>32</dim>
					<dim>256</dim>
					<dim>1</dim>
					<dim>1</dim>
				</port>
			</input>
			<output>
				<port id="2" precision="FP16">
					<dim>1</dim>
					<dim>32</dim>
					<dim>17</dim>
					<dim>17</dim>
				</port>
			</output>
		</layer>
		<layer id="75" name="data_add_3505035055" type="Const" version="opset1">
			<data element_type="f16" offset="1400680" shape="1, 32, 1, 1" size="64"/>
			<output>
				<port id="0" precision="FP16">
					<dim>1</dim>
					<dim>32</dim>
					<dim>1</dim>
					<dim>1</dim>
				</port>
			</output>
		</layer>
		<layer id="76" name="InceptionResnetV1/Repeat/block35_2/Branch_0/Conv2d_1x1/BatchNorm/cond/FusedBatchNorm_1/variance/Fused_Add_" type="Add" version="opset1">
			<data auto_broadcast="numpy"/>
			<input>
				<port id="0" precision="FP16">
					<dim>1</dim>
					<dim>32</dim>
					<dim>17</dim>
					<dim>17</dim>
				</port>
				<port id="1" precision="FP16">
					<dim>1</dim>
					<dim>32</dim>
					<dim>1</dim>
					<dim>1</dim>
				</port>
			</input>
			<output>
				<port id="2" names="InceptionResnetV1/Repeat/block35_2/Branch_0/Conv2d_1x1/BatchNorm/cond/FusedBatchNorm_1:0,InceptionResnetV1/Repeat/block35_2/Branch_0/Conv2d_1x1/BatchNorm/cond/Merge:0,InceptionResnetV1/Repeat/block35_2/Branch_0/Conv2d_1x1/BatchNorm/cond_1/Merge:0,InceptionResnetV1/Repeat/block35_2/Branch_0/Conv2d_1x1/BatchNorm/cond_1/Switch_1:0" precision="FP16">
					<dim>1</dim>
					<dim>32</dim>
					<dim>17</dim>
					<dim>17</dim>
				</port>
			</output>
		</layer>
		<layer id="77" name="InceptionResnetV1/Repeat/block35_2/Branch_0/Conv2d_1x1/Relu" type="ReLU" version="opset1">
			<input>
				<port id="0" precision="FP16">
					<dim>1</dim>
					<dim>32</dim>
					<dim>17</dim>
					<dim>17</dim>
				</port>
			</input>
			<output>
				<port id="1" names="InceptionResnetV1/Repeat/block35_2/Branch_0/Conv2d_1x1/Relu:0" precision="FP16">
					<dim>1</dim>
					<dim>32</dim>
					<dim>17</dim>
					<dim>17</dim>
				</port>
			</output>
		</layer>
		<layer id="78" name="InceptionResnetV1/Repeat/block35_2/Branch_1/Conv2d_0a_1x1/BatchNorm/cond/FusedBatchNorm_1/mean/Fused_Mul__copy" type="Const" version="opset1">
			<data element_type="f16" offset="1400744" shape="32, 256, 1, 1" size="16384"/>
			<output>
				<port id="0" names="InceptionResnetV1/Repeat/block35_2/Branch_1/Conv2d_0a_1x1/weights/read:0" precision="FP16">
					<dim>32</dim>
					<dim>256</dim>
					<dim>1</dim>
					<dim>1</dim>
				</port>
			</output>
		</layer>
		<layer id="79" name="InceptionResnetV1/Repeat/block35_2/Branch_1/Conv2d_0a_1x1/Conv2D" type="Convolution" version="opset1">
			<data auto_pad="same_upper" dilations="1, 1" pads_begin="0, 0" pads_end="0, 0" strides="1, 1"/>
			<input>
				<port id="0" precision="FP16">
					<dim>1</dim>
					<dim>256</dim>
					<dim>17</dim>
					<dim>17</dim>
				</port>
				<port id="1" precision="FP16">
					<dim>32</dim>
					<dim>256</dim>
					<dim>1</dim>
					<dim>1</dim>
				</port>
			</input>
			<output>
				<port id="2" precision="FP16">
					<dim>1</dim>
					<dim>32</dim>
					<dim>17</dim>
					<dim>17</dim>
				</port>
			</output>
		</layer>
		<layer id="80" name="data_add_3503435039" type="Const" version="opset1">
			<data element_type="f16" offset="1417128" shape="1, 32, 1, 1" size="64"/>
			<output>
				<port id="0" precision="FP16">
					<dim>1</dim>
					<dim>32</dim>
					<dim>1</dim>
					<dim>1</dim>
				</port>
			</output>
		</layer>
		<layer id="81" name="InceptionResnetV1/Repeat/block35_2/Branch_1/Conv2d_0a_1x1/BatchNorm/cond/FusedBatchNorm_1/variance/Fused_Add_" type="Add" version="opset1">
			<data auto_broadcast="numpy"/>
			<input>
				<port id="0" precision="FP16">
					<dim>1</dim>
					<dim>32</dim>
					<dim>17</dim>
					<dim>17</dim>
				</port>
				<port id="1" precision="FP16">
					<dim>1</dim>
					<dim>32</dim>
					<dim>1</dim>
					<dim>1</dim>
				</port>
			</input>
			<output>
				<port id="2" names="InceptionResnetV1/Repeat/block35_2/Branch_1/Conv2d_0a_1x1/BatchNorm/cond/FusedBatchNorm_1:0,InceptionResnetV1/Repeat/block35_2/Branch_1/Conv2d_0a_1x1/BatchNorm/cond/Merge:0,InceptionResnetV1/Repeat/block35_2/Branch_1/Conv2d_0a_1x1/BatchNorm/cond_1/Merge:0,InceptionResnetV1/Repeat/block35_2/Branch_1/Conv2d_0a_1x1/BatchNorm/cond_1/Switch_1:0" precision="FP16">
					<dim>1</dim>
					<dim>32</dim>
					<dim>17</dim>
					<dim>17</dim>
				</port>
			</output>
		</layer>
		<layer id="82" name="InceptionResnetV1/Repeat/block35_2/Branch_1/Conv2d_0a_1x1/Relu" type="ReLU" version="opset1">
			<input>
				<port id="0" precision="FP16">
					<dim>1</dim>
					<dim>32</dim>
					<dim>17</dim>
					<dim>17</dim>
				</port>
			</input>
			<output>
				<port id="1" names="InceptionResnetV1/Repeat/block35_2/Branch_1/Conv2d_0a_1x1/Relu:0" precision="FP16">
					<dim>1</dim>
					<dim>32</dim>
					<dim>17</dim>
					<dim>17</dim>
				</port>
			</output>
		</layer>
		<layer id="83" name="InceptionResnetV1/Repeat/block35_2/Branch_1/Conv2d_0b_3x3/BatchNorm/cond/FusedBatchNorm_1/mean/Fused_Mul__copy" type="Const" version="opset1">
			<data element_type="f16" offset="1417192" shape="32, 32, 3, 3" size="18432"/>
			<output>
				<port id="0" names="InceptionResnetV1/Repeat/block35_2/Branch_1/Conv2d_0b_3x3/weights/read:0" precision="FP16">
					<dim>32</dim>
					<dim>32</dim>
					<dim>3</dim>
					<dim>3</dim>
				</port>
			</output>
		</layer>
		<layer id="84" name="InceptionResnetV1/Repeat/block35_2/Branch_1/Conv2d_0b_3x3/Conv2D" type="Convolution" version="opset1">
			<data auto_pad="same_upper" dilations="1, 1" pads_begin="1, 1" pads_end="1, 1" strides="1, 1"/>
			<input>
				<port id="0" precision="FP16">
					<dim>1</dim>
					<dim>32</dim>
					<dim>17</dim>
					<dim>17</dim>
				</port>
				<port id="1" precision="FP16">
					<dim>32</dim>
					<dim>32</dim>
					<dim>3</dim>
					<dim>3</dim>
				</port>
			</input>
			<output>
				<port id="2" precision="FP16">
					<dim>1</dim>
					<dim>32</dim>
					<dim>17</dim>
					<dim>17</dim>
				</port>
			</output>
		</layer>
		<layer id="85" name="data_add_3504235047" type="Const" version="opset1">
			<data element_type="f16" offset="1435624" shape="1, 32, 1, 1" size="64"/>
			<output>
				<port id="0" precision="FP16">
					<dim>1</dim>
					<dim>32</dim>
					<dim>1</dim>
					<dim>1</dim>
				</port>
			</output>
		</layer>
		<layer id="86" name="InceptionResnetV1/Repeat/block35_2/Branch_1/Conv2d_0b_3x3/BatchNorm/cond/FusedBatchNorm_1/variance/Fused_Add_" type="Add" version="opset1">
			<data auto_broadcast="numpy"/>
			<input>
				<port id="0" precision="FP16">
					<dim>1</dim>
					<dim>32</dim>
					<dim>17</dim>
					<dim>17</dim>
				</port>
				<port id="1" precision="FP16">
					<dim>1</dim>
					<dim>32</dim>
					<dim>1</dim>
					<dim>1</dim>
				</port>
			</input>
			<output>
				<port id="2" names="InceptionResnetV1/Repeat/block35_2/Branch_1/Conv2d_0b_3x3/BatchNorm/cond/FusedBatchNorm_1:0,InceptionResnetV1/Repeat/block35_2/Branch_1/Conv2d_0b_3x3/BatchNorm/cond/Merge:0,InceptionResnetV1/Repeat/block35_2/Branch_1/Conv2d_0b_3x3/BatchNorm/cond_1/Merge:0,InceptionResnetV1/Repeat/block35_2/Branch_1/Conv2d_0b_3x3/BatchNorm/cond_1/Switch_1:0" precision="FP16">
					<dim>1</dim>
					<dim>32</dim>
					<dim>17</dim>
					<dim>17</dim>
				</port>
			</output>
		</layer>
		<layer id="87" name="InceptionResnetV1/Repeat/block35_2/Branch_1/Conv2d_0b_3x3/Relu" type="ReLU" version="opset1">
			<input>
				<port id="0" precision="FP16">
					<dim>1</dim>
					<dim>32</dim>
					<dim>17</dim>
					<dim>17</dim>
				</port>
			</input>
			<output>
				<port id="1" names="InceptionResnetV1/Repeat/block35_2/Branch_1/Conv2d_0b_3x3/Relu:0" precision="FP16">
					<dim>1</dim>
					<dim>32</dim>
					<dim>17</dim>
					<dim>17</dim>
				</port>
			</output>
		</layer>
		<layer id="88" name="InceptionResnetV1/Repeat/block35_2/Branch_2/Conv2d_0a_1x1/BatchNorm/cond/FusedBatchNorm_1/mean/Fused_Mul__copy" type="Const" version="opset1">
			<data element_type="f16" offset="1435688" shape="32, 256, 1, 1" size="16384"/>
			<output>
				<port id="0" names="InceptionResnetV1/Repeat/block35_2/Branch_2/Conv2d_0a_1x1/weights/read:0" precision="FP16">
					<dim>32</dim>
					<dim>256</dim>
					<dim>1</dim>
					<dim>1</dim>
				</port>
			</output>
		</layer>
		<layer id="89" name="InceptionResnetV1/Repeat/block35_2/Branch_2/Conv2d_0a_1x1/Conv2D" type="Convolution" version="opset1">
			<data auto_pad="same_upper" dilations="1, 1" pads_begin="0, 0" pads_end="0, 0" strides="1, 1"/>
			<input>
				<port id="0" precision="FP16">
					<dim>1</dim>
					<dim>256</dim>
					<dim>17</dim>
					<dim>17</dim>
				</port>
				<port id="1" precision="FP16">
					<dim>32</dim>
					<dim>256</dim>
					<dim>1</dim>
					<dim>1</dim>
				</port>
			</input>
			<output>
				<port id="2" precision="FP16">
					<dim>1</dim>
					<dim>32</dim>
					<dim>17</dim>
					<dim>17</dim>
				</port>
			</output>
		</layer>
		<layer id="90" name="data_add_3501035015" type="Const" version="opset1">
			<data element_type="f16" offset="1452072" shape="1, 32, 1, 1" size="64"/>
			<output>
				<port id="0" precision="FP16">
					<dim>1</dim>
					<dim>32</dim>
					<dim>1</dim>
					<dim>1</dim>
				</port>
			</output>
		</layer>
		<layer id="91" name="InceptionResnetV1/Repeat/block35_2/Branch_2/Conv2d_0a_1x1/BatchNorm/cond/FusedBatchNorm_1/variance/Fused_Add_" type="Add" version="opset1">
			<data auto_broadcast="numpy"/>
			<input>
				<port id="0" precision="FP16">
					<dim>1</dim>
					<dim>32</dim>
					<dim>17</dim>
					<dim>17</dim>
				</port>
				<port id="1" precision="FP16">
					<dim>1</dim>
					<dim>32</dim>
					<dim>1</dim>
					<dim>1</dim>
				</port>
			</input>
			<output>
				<port id="2" names="InceptionResnetV1/Repeat/block35_2/Branch_2/Conv2d_0a_1x1/BatchNorm/cond/FusedBatchNorm_1:0,InceptionResnetV1/Repeat/block35_2/Branch_2/Conv2d_0a_1x1/BatchNorm/cond/Merge:0,InceptionResnetV1/Repeat/block35_2/Branch_2/Conv2d_0a_1x1/BatchNorm/cond_1/Merge:0,InceptionResnetV1/Repeat/block35_2/Branch_2/Conv2d_0a_1x1/BatchNorm/cond_1/Switch_1:0" precision="FP16">
					<dim>1</dim>
					<dim>32</dim>
					<dim>17</dim>
					<dim>17</dim>
				</port>
			</output>
		</layer>
		<layer id="92" name="InceptionResnetV1/Repeat/block35_2/Branch_2/Conv2d_0a_1x1/Relu" type="ReLU" version="opset1">
			<input>
				<port id="0" precision="FP16">
					<dim>1</dim>
					<dim>32</dim>
					<dim>17</dim>
					<dim>17</dim>
				</port>
			</input>
			<output>
				<port id="1" names="InceptionResnetV1/Repeat/block35_2/Branch_2/Conv2d_0a_1x1/Relu:0" precision="FP16">
					<dim>1</dim>
					<dim>32</dim>
					<dim>17</dim>
					<dim>17</dim>
				</port>
			</output>
		</layer>
		<layer id="93" name="InceptionResnetV1/Repeat/block35_2/Branch_2/Conv2d_0b_3x3/BatchNorm/cond/FusedBatchNorm_1/mean/Fused_Mul__copy" type="Const" version="opset1">
			<data element_type="f16" offset="1452136" shape="32, 32, 3, 3" size="18432"/>
			<output>
				<port id="0" names="InceptionResnetV1/Repeat/block35_2/Branch_2/Conv2d_0b_3x3/weights/read:0" precision="FP16">
					<dim>32</dim>
					<dim>32</dim>
					<dim>3</dim>
					<dim>3</dim>
				</port>
			</output>
		</layer>
		<layer id="94" name="InceptionResnetV1/Repeat/block35_2/Branch_2/Conv2d_0b_3x3/Conv2D" type="Convolution" version="opset1">
			<data auto_pad="same_upper" dilations="1, 1" pads_begin="1, 1" pads_end="1, 1" strides="1, 1"/>
			<input>
				<port id="0" precision="FP16">
					<dim>1</dim>
					<dim>32</dim>
					<dim>17</dim>
					<dim>17</dim>
				</port>
				<port id="1" precision="FP16">
					<dim>32</dim>
					<dim>32</dim>
					<dim>3</dim>
					<dim>3</dim>
				</port>
			</input>
			<output>
				<port id="2" precision="FP16">
					<dim>1</dim>
					<dim>32</dim>
					<dim>17</dim>
					<dim>17</dim>
				</port>
			</output>
		</layer>
		<layer id="95" name="data_add_3501835023" type="Const" version="opset1">
			<data element_type="f16" offset="1470568" shape="1, 32, 1, 1" size="64"/>
			<output>
				<port id="0" precision="FP16">
					<dim>1</dim>
					<dim>32</dim>
					<dim>1</dim>
					<dim>1</dim>
				</port>
			</output>
		</layer>
		<layer id="96" name="InceptionResnetV1/Repeat/block35_2/Branch_2/Conv2d_0b_3x3/BatchNorm/cond/FusedBatchNorm_1/variance/Fused_Add_" type="Add" version="opset1">
			<data auto_broadcast="numpy"/>
			<input>
				<port id="0" precision="FP16">
					<dim>1</dim>
					<dim>32</dim>
					<dim>17</dim>
					<dim>17</dim>
				</port>
				<port id="1" precision="FP16">
					<dim>1</dim>
					<dim>32</dim>
					<dim>1</dim>
					<dim>1</dim>
				</port>
			</input>
			<output>
				<port id="2" names="InceptionResnetV1/Repeat/block35_2/Branch_2/Conv2d_0b_3x3/BatchNorm/cond/FusedBatchNorm_1:0,InceptionResnetV1/Repeat/block35_2/Branch_2/Conv2d_0b_3x3/BatchNorm/cond/Merge:0,InceptionResnetV1/Repeat/block35_2/Branch_2/Conv2d_0b_3x3/BatchNorm/cond_1/Merge:0,InceptionResnetV1/Repeat/block35_2/Branch_2/Conv2d_0b_3x3/BatchNorm/cond_1/Switch_1:0" precision="FP16">
					<dim>1</dim>
					<dim>32</dim>
					<dim>17</dim>
					<dim>17</dim>
				</port>
			</output>
		</layer>
		<layer id="97" name="InceptionResnetV1/Repeat/block35_2/Branch_2/Conv2d_0b_3x3/Relu" type="ReLU" version="opset1">
			<input>
				<port id="0" precision="FP16">
					<dim>1</dim>
					<dim>32</dim>
					<dim>17</dim>
					<dim>17</dim>
				</port>
			</input>
			<output>
				<port id="1" names="InceptionResnetV1/Repeat/block35_2/Branch_2/Conv2d_0b_3x3/Relu:0" precision="FP16">
					<dim>1</dim>
					<dim>32</dim>
					<dim>17</dim>
					<dim>17</dim>
				</port>
			</output>
		</layer>
		<layer id="98" name="InceptionResnetV1/Repeat/block35_2/Branch_2/Conv2d_0c_3x3/BatchNorm/cond/FusedBatchNorm_1/mean/Fused_Mul__copy" type="Const" version="opset1">
			<data element_type="f16" offset="1470632" shape="32, 32, 3, 3" size="18432"/>
			<output>
				<port id="0" names="InceptionResnetV1/Repeat/block35_2/Branch_2/Conv2d_0c_3x3/weights/read:0" precision="FP16">
					<dim>32</dim>
					<dim>32</dim>
					<dim>3</dim>
					<dim>3</dim>
				</port>
			</output>
		</layer>
		<layer id="99" name="InceptionResnetV1/Repeat/block35_2/Branch_2/Conv2d_0c_3x3/Conv2D" type="Convolution" version="opset1">
			<data auto_pad="same_upper" dilations="1, 1" pads_begin="1, 1" pads_end="1, 1" strides="1, 1"/>
			<input>
				<port id="0" precision="FP16">
					<dim>1</dim>
					<dim>32</dim>
					<dim>17</dim>
					<dim>17</dim>
				</port>
				<port id="1" precision="FP16">
					<dim>32</dim>
					<dim>32</dim>
					<dim>3</dim>
					<dim>3</dim>
				</port>
			</input>
			<output>
				<port id="2" precision="FP16">
					<dim>1</dim>
					<dim>32</dim>
					<dim>17</dim>
					<dim>17</dim>
				</port>
			</output>
		</layer>
		<layer id="100" name="data_add_3502635031" type="Const" version="opset1">
			<data element_type="f16" offset="1489064" shape="1, 32, 1, 1" size="64"/>
			<output>
				<port id="0" precision="FP16">
					<dim>1</dim>
					<dim>32</dim>
					<dim>1</dim>
					<dim>1</dim>
				</port>
			</output>
		</layer>
		<layer id="101" name="InceptionResnetV1/Repeat/block35_2/Branch_2/Conv2d_0c_3x3/BatchNorm/cond/FusedBatchNorm_1/variance/Fused_Add_" type="Add" version="opset1">
			<data auto_broadcast="numpy"/>
			<input>
				<port id="0" precision="FP16">
					<dim>1</dim>
					<dim>32</dim>
					<dim>17</dim>
					<dim>17</dim>
				</port>
				<port id="1" precision="FP16">
					<dim>1</dim>
					<dim>32</dim>
					<dim>1</dim>
					<dim>1</dim>
				</port>
			</input>
			<output>
				<port id="2" names="InceptionResnetV1/Repeat/block35_2/Branch_2/Conv2d_0c_3x3/BatchNorm/cond/FusedBatchNorm_1:0,InceptionResnetV1/Repeat/block35_2/Branch_2/Conv2d_0c_3x3/BatchNorm/cond/Merge:0,InceptionResnetV1/Repeat/block35_2/Branch_2/Conv2d_0c_3x3/BatchNorm/cond_1/Merge:0,InceptionResnetV1/Repeat/block35_2/Branch_2/Conv2d_0c_3x3/BatchNorm/cond_1/Switch_1:0" precision="FP16">
					<dim>1</dim>
					<dim>32</dim>
					<dim>17</dim>
					<dim>17</dim>
				</port>
			</output>
		</layer>
		<layer id="102" name="InceptionResnetV1/Repeat/block35_2/Branch_2/Conv2d_0c_3x3/Relu" type="ReLU" version="opset1">
			<input>
				<port id="0" precision="FP16">
					<dim>1</dim>
					<dim>32</dim>
					<dim>17</dim>
					<dim>17</dim>
				</port>
			</input>
			<output>
				<port id="1" names="InceptionResnetV1/Repeat/block35_2/Branch_2/Conv2d_0c_3x3/Relu:0" precision="FP16">
					<dim>1</dim>
					<dim>32</dim>
					<dim>17</dim>
					<dim>17</dim>
				</port>
			</output>
		</layer>
		<layer id="103" name="InceptionResnetV1/Repeat/block35_2/concat" type="Concat" version="opset1">
			<data axis="1"/>
			<input>
				<port id="0" precision="FP16">
					<dim>1</dim>
					<dim>32</dim>
					<dim>17</dim>
					<dim>17</dim>
				</port>
				<port id="1" precision="FP16">
					<dim>1</dim>
					<dim>32</dim>
					<dim>17</dim>
					<dim>17</dim>
				</port>
				<port id="2" precision="FP16">
					<dim>1</dim>
					<dim>32</dim>
					<dim>17</dim>
					<dim>17</dim>
				</port>
			</input>
			<output>
				<port id="3" names="InceptionResnetV1/Repeat/block35_2/concat:0" precision="FP16">
					<dim>1</dim>
					<dim>96</dim>
					<dim>17</dim>
					<dim>17</dim>
				</port>
			</output>
		</layer>
		<layer id="104" name="InceptionResnetV1/Repeat/block35_2/mul/Fused_Mul__copy" type="Const" version="opset1">
			<data element_type="f16" offset="1489128" shape="256, 96, 1, 1" size="49152"/>
			<output>
				<port id="0" names="InceptionResnetV1/Repeat/block35_2/Conv2d_1x1/weights/read:0" precision="FP16">
					<dim>256</dim>
					<dim>96</dim>
					<dim>1</dim>
					<dim>1</dim>
				</port>
			</output>
		</layer>
		<layer id="105" name="InceptionResnetV1/Repeat/block35_2/Conv2d_1x1/Conv2D" type="Convolution" version="opset1">
			<data auto_pad="same_upper" dilations="1, 1" pads_begin="0, 0" pads_end="0, 0" strides="1, 1"/>
			<input>
				<port id="0" precision="FP16">
					<dim>1</dim>
					<dim>96</dim>
					<dim>17</dim>
					<dim>17</dim>
				</port>
				<port id="1" precision="FP16">
					<dim>256</dim>
					<dim>96</dim>
					<dim>1</dim>
					<dim>1</dim>
				</port>
			</input>
			<output>
				<port id="2" precision="FP16">
					<dim>1</dim>
					<dim>256</dim>
					<dim>17</dim>
					<dim>17</dim>
				</port>
			</output>
		</layer>
		<layer id="106" name="data_add_3505835063" type="Const" version="opset1">
			<data element_type="f16" offset="1538280" shape="1, 256, 1, 1" size="512"/>
			<output>
				<port id="0" precision="FP16">
					<dim>1</dim>
					<dim>256</dim>
					<dim>1</dim>
					<dim>1</dim>
				</port>
			</output>
		</layer>
		<layer id="107" name="InceptionResnetV1/Repeat/block35_2/Conv2d_1x1/BiasAdd/Add/Fused_Add_" type="Add" version="opset1">
			<data auto_broadcast="numpy"/>
			<input>
				<port id="0" precision="FP16">
					<dim>1</dim>
					<dim>256</dim>
					<dim>17</dim>
					<dim>17</dim>
				</port>
				<port id="1" precision="FP16">
					<dim>1</dim>
					<dim>256</dim>
					<dim>1</dim>
					<dim>1</dim>
				</port>
			</input>
			<output>
				<port id="2" names="InceptionResnetV1/Repeat/block35_2/mul:0" precision="FP16">
					<dim>1</dim>
					<dim>256</dim>
					<dim>17</dim>
					<dim>17</dim>
				</port>
			</output>
		</layer>
		<layer id="108" name="InceptionResnetV1/Repeat/block35_2/add" type="Add" version="opset1">
			<data auto_broadcast="numpy"/>
			<input>
				<port id="0" precision="FP16">
					<dim>1</dim>
					<dim>256</dim>
					<dim>17</dim>
					<dim>17</dim>
				</port>
				<port id="1" precision="FP16">
					<dim>1</dim>
					<dim>256</dim>
					<dim>17</dim>
					<dim>17</dim>
				</port>
			</input>
			<output>
				<port id="2" names="InceptionResnetV1/Repeat/block35_2/add:0" precision="FP16">
					<dim>1</dim>
					<dim>256</dim>
					<dim>17</dim>
					<dim>17</dim>
				</port>
			</output>
		</layer>
		<layer id="109" name="InceptionResnetV1/Repeat/block35_2/Relu" type="ReLU" version="opset1">
			<input>
				<port id="0" precision="FP16">
					<dim>1</dim>
					<dim>256</dim>
					<dim>17</dim>
					<dim>17</dim>
				</port>
			</input>
			<output>
				<port id="1" names="InceptionResnetV1/Repeat/block35_2/Relu:0" precision="FP16">
					<dim>1</dim>
					<dim>256</dim>
					<dim>17</dim>
					<dim>17</dim>
				</port>
			</output>
		</layer>
		<layer id="110" name="InceptionResnetV1/Repeat/block35_3/Branch_0/Conv2d_1x1/BatchNorm/cond/FusedBatchNorm_1/mean/Fused_Mul__copy" type="Const" version="opset1">
			<data element_type="f16" offset="1538792" shape="32, 256, 1, 1" size="16384"/>
			<output>
				<port id="0" names="InceptionResnetV1/Repeat/block35_3/Branch_0/Conv2d_1x1/weights/read:0" precision="FP16">
					<dim>32</dim>
					<dim>256</dim>
					<dim>1</dim>
					<dim>1</dim>
				</port>
			</output>
		</layer>
		<layer id="111" name="InceptionResnetV1/Repeat/block35_3/Branch_0/Conv2d_1x1/Conv2D" type="Convolution" version="opset1">
			<data auto_pad="same_upper" dilations="1, 1" pads_begin="0, 0" pads_end="0, 0" strides="1, 1"/>
			<input>
				<port id="0" precision="FP16">
					<dim>1</dim>
					<dim>256</dim>
					<dim>17</dim>
					<dim>17</dim>
				</port>
				<port id="1" precision="FP16">
					<dim>32</dim>
					<dim>256</dim>
					<dim>1</dim>
					<dim>1</dim>
				</port>
			</input>
			<output>
				<port id="2" precision="FP16">
					<dim>1</dim>
					<dim>32</dim>
					<dim>17</dim>
					<dim>17</dim>
				</port>
			</output>
		</layer>
		<layer id="112" name="data_add_3510635111" type="Const" version="opset1">
			<data element_type="f16" offset="1555176" shape="1, 32, 1, 1" size="64"/>
			<output>
				<port id="0" precision="FP16">
					<dim>1</dim>
					<dim>32</dim>
					<dim>1</dim>
					<dim>1</dim>
				</port>
			</output>
		</layer>
		<layer id="113" name="InceptionResnetV1/Repeat/block35_3/Branch_0/Conv2d_1x1/BatchNorm/cond/FusedBatchNorm_1/variance/Fused_Add_" type="Add" version="opset1">
			<data auto_broadcast="numpy"/>
			<input>
				<port id="0" precision="FP16">
					<dim>1</dim>
					<dim>32</dim>
					<dim>17</dim>
					<dim>17</dim>
				</port>
				<port id="1" precision="FP16">
					<dim>1</dim>
					<dim>32</dim>
					<dim>1</dim>
					<dim>1</dim>
				</port>
			</input>
			<output>
				<port id="2" names="InceptionResnetV1/Repeat/block35_3/Branch_0/Conv2d_1x1/BatchNorm/cond/FusedBatchNorm_1:0,InceptionResnetV1/Repeat/block35_3/Branch_0/Conv2d_1x1/BatchNorm/cond/Merge:0,InceptionResnetV1/Repeat/block35_3/Branch_0/Conv2d_1x1/BatchNorm/cond_1/Merge:0,InceptionResnetV1/Repeat/block35_3/Branch_0/Conv2d_1x1/BatchNorm/cond_1/Switch_1:0" precision="FP16">
					<dim>1</dim>
					<dim>32</dim>
					<dim>17</dim>
					<dim>17</dim>
				</port>
			</output>
		</layer>
		<layer id="114" name="InceptionResnetV1/Repeat/block35_3/Branch_0/Conv2d_1x1/Relu" type="ReLU" version="opset1">
			<input>
				<port id="0" precision="FP16">
					<dim>1</dim>
					<dim>32</dim>
					<dim>17</dim>
					<dim>17</dim>
				</port>
			</input>
			<output>
				<port id="1" names="InceptionResnetV1/Repeat/block35_3/Branch_0/Conv2d_1x1/Relu:0" precision="FP16">
					<dim>1</dim>
					<dim>32</dim>
					<dim>17</dim>
					<dim>17</dim>
				</port>
			</output>
		</layer>
		<layer id="115" name="InceptionResnetV1/Repeat/block35_3/Branch_1/Conv2d_0a_1x1/BatchNorm/cond/FusedBatchNorm_1/mean/Fused_Mul__copy" type="Const" version="opset1">
			<data element_type="f16" offset="1555240" shape="32, 256, 1, 1" size="16384"/>
			<output>
				<port id="0" names="InceptionResnetV1/Repeat/block35_3/Branch_1/Conv2d_0a_1x1/weights/read:0" precision="FP16">
					<dim>32</dim>
					<dim>256</dim>
					<dim>1</dim>
					<dim>1</dim>
				</port>
			</output>
		</layer>
		<layer id="116" name="InceptionResnetV1/Repeat/block35_3/Branch_1/Conv2d_0a_1x1/Conv2D" type="Convolution" version="opset1">
			<data auto_pad="same_upper" dilations="1, 1" pads_begin="0, 0" pads_end="0, 0" strides="1, 1"/>
			<input>
				<port id="0" precision="FP16">
					<dim>1</dim>
					<dim>256</dim>
					<dim>17</dim>
					<dim>17</dim>
				</port>
				<port id="1" precision="FP16">
					<dim>32</dim>
					<dim>256</dim>
					<dim>1</dim>
					<dim>1</dim>
				</port>
			</input>
			<output>
				<port id="2" precision="FP16">
					<dim>1</dim>
					<dim>32</dim>
					<dim>17</dim>
					<dim>17</dim>
				</port>
			</output>
		</layer>
		<layer id="117" name="data_add_3509035095" type="Const" version="opset1">
			<data element_type="f16" offset="1571624" shape="1, 32, 1, 1" size="64"/>
			<output>
				<port id="0" precision="FP16">
					<dim>1</dim>
					<dim>32</dim>
					<dim>1</dim>
					<dim>1</dim>
				</port>
			</output>
		</layer>
		<layer id="118" name="InceptionResnetV1/Repeat/block35_3/Branch_1/Conv2d_0a_1x1/BatchNorm/cond/FusedBatchNorm_1/variance/Fused_Add_" type="Add" version="opset1">
			<data auto_broadcast="numpy"/>
			<input>
				<port id="0" precision="FP16">
					<dim>1</dim>
					<dim>32</dim>
					<dim>17</dim>
					<dim>17</dim>
				</port>
				<port id="1" precision="FP16">
					<dim>1</dim>
					<dim>32</dim>
					<dim>1</dim>
					<dim>1</dim>
				</port>
			</input>
			<output>
				<port id="2" names="InceptionResnetV1/Repeat/block35_3/Branch_1/Conv2d_0a_1x1/BatchNorm/cond/FusedBatchNorm_1:0,InceptionResnetV1/Repeat/block35_3/Branch_1/Conv2d_0a_1x1/BatchNorm/cond/Merge:0,InceptionResnetV1/Repeat/block35_3/Branch_1/Conv2d_0a_1x1/BatchNorm/cond_1/Merge:0,InceptionResnetV1/Repeat/block35_3/Branch_1/Conv2d_0a_1x1/BatchNorm/cond_1/Switch_1:0" precision="FP16">
					<dim>1</dim>
					<dim>32</dim>
					<dim>17</dim>
					<dim>17</dim>
				</port>
			</output>
		</layer>
		<layer id="119" name="InceptionResnetV1/Repeat/block35_3/Branch_1/Conv2d_0a_1x1/Relu" type="ReLU" version="opset1">
			<input>
				<port id="0" precision="FP16">
					<dim>1</dim>
					<dim>32</dim>
					<dim>17</dim>
					<dim>17</dim>
				</port>
			</input>
			<output>
				<port id="1" names="InceptionResnetV1/Repeat/block35_3/Branch_1/Conv2d_0a_1x1/Relu:0" precision="FP16">
					<dim>1</dim>
					<dim>32</dim>
					<dim>17</dim>
					<dim>17</dim>
				</port>
			</output>
		</layer>
		<layer id="120" name="InceptionResnetV1/Repeat/block35_3/Branch_1/Conv2d_0b_3x3/BatchNorm/cond/FusedBatchNorm_1/mean/Fused_Mul__copy" type="Const" version="opset1">
			<data element_type="f16" offset="1571688" shape="32, 32, 3, 3" size="18432"/>
			<output>
				<port id="0" names="InceptionResnetV1/Repeat/block35_3/Branch_1/Conv2d_0b_3x3/weights/read:0" precision="FP16">
					<dim>32</dim>
					<dim>32</dim>
					<dim>3</dim>
					<dim>3</dim>
				</port>
			</output>
		</layer>
		<layer id="121" name="InceptionResnetV1/Repeat/block35_3/Branch_1/Conv2d_0b_3x3/Conv2D" type="Convolution" version="opset1">
			<data auto_pad="same_upper" dilations="1, 1" pads_begin="1, 1" pads_end="1, 1" strides="1, 1"/>
			<input>
				<port id="0" precision="FP16">
					<dim>1</dim>
					<dim>32</dim>
					<dim>17</dim>
					<dim>17</dim>
				</port>
				<port id="1" precision="FP16">
					<dim>32</dim>
					<dim>32</dim>
					<dim>3</dim>
					<dim>3</dim>
				</port>
			</input>
			<output>
				<port id="2" precision="FP16">
					<dim>1</dim>
					<dim>32</dim>
					<dim>17</dim>
					<dim>17</dim>
				</port>
			</output>
		</layer>
		<layer id="122" name="data_add_3509835103" type="Const" version="opset1">
			<data element_type="f16" offset="1590120" shape="1, 32, 1, 1" size="64"/>
			<output>
				<port id="0" precision="FP16">
					<dim>1</dim>
					<dim>32</dim>
					<dim>1</dim>
					<dim>1</dim>
				</port>
			</output>
		</layer>
		<layer id="123" name="InceptionResnetV1/Repeat/block35_3/Branch_1/Conv2d_0b_3x3/BatchNorm/cond/FusedBatchNorm_1/variance/Fused_Add_" type="Add" version="opset1">
			<data auto_broadcast="numpy"/>
			<input>
				<port id="0" precision="FP16">
					<dim>1</dim>
					<dim>32</dim>
					<dim>17</dim>
					<dim>17</dim>
				</port>
				<port id="1" precision="FP16">
					<dim>1</dim>
					<dim>32</dim>
					<dim>1</dim>
					<dim>1</dim>
				</port>
			</input>
			<output>
				<port id="2" names="InceptionResnetV1/Repeat/block35_3/Branch_1/Conv2d_0b_3x3/BatchNorm/cond/FusedBatchNorm_1:0,InceptionResnetV1/Repeat/block35_3/Branch_1/Conv2d_0b_3x3/BatchNorm/cond/Merge:0,InceptionResnetV1/Repeat/block35_3/Branch_1/Conv2d_0b_3x3/BatchNorm/cond_1/Merge:0,InceptionResnetV1/Repeat/block35_3/Branch_1/Conv2d_0b_3x3/BatchNorm/cond_1/Switch_1:0" precision="FP16">
					<dim>1</dim>
					<dim>32</dim>
					<dim>17</dim>
					<dim>17</dim>
				</port>
			</output>
		</layer>
		<layer id="124" name="InceptionResnetV1/Repeat/block35_3/Branch_1/Conv2d_0b_3x3/Relu" type="ReLU" version="opset1">
			<input>
				<port id="0" precision="FP16">
					<dim>1</dim>
					<dim>32</dim>
					<dim>17</dim>
					<dim>17</dim>
				</port>
			</input>
			<output>
				<port id="1" names="InceptionResnetV1/Repeat/block35_3/Branch_1/Conv2d_0b_3x3/Relu:0" precision="FP16">
					<dim>1</dim>
					<dim>32</dim>
					<dim>17</dim>
					<dim>17</dim>
				</port>
			</output>
		</layer>
		<layer id="125" name="InceptionResnetV1/Repeat/block35_3/Branch_2/Conv2d_0a_1x1/BatchNorm/cond/FusedBatchNorm_1/mean/Fused_Mul__copy" type="Const" version="opset1">
			<data element_type="f16" offset="1590184" shape="32, 256, 1, 1" size="16384"/>
			<output>
				<port id="0" names="InceptionResnetV1/Repeat/block35_3/Branch_2/Conv2d_0a_1x1/weights/read:0" precision="FP16">
					<dim>32</dim>
					<dim>256</dim>
					<dim>1</dim>
					<dim>1</dim>
				</port>
			</output>
		</layer>
		<layer id="126" name="InceptionResnetV1/Repeat/block35_3/Branch_2/Conv2d_0a_1x1/Conv2D" type="Convolution" version="opset1">
			<data auto_pad="same_upper" dilations="1, 1" pads_begin="0, 0" pads_end="0, 0" strides="1, 1"/>
			<input>
				<port id="0" precision="FP16">
					<dim>1</dim>
					<dim>256</dim>
					<dim>17</dim>
					<dim>17</dim>
				</port>
				<port id="1" precision="FP16">
					<dim>32</dim>
					<dim>256</dim>
					<dim>1</dim>
					<dim>1</dim>
				</port>
			</input>
			<output>
				<port id="2" precision="FP16">
					<dim>1</dim>
					<dim>32</dim>
					<dim>17</dim>
					<dim>17</dim>
				</port>
			</output>
		</layer>
		<layer id="127" name="data_add_3506635071" type="Const" version="opset1">
			<data element_type="f16" offset="1606568" shape="1, 32, 1, 1" size="64"/>
			<output>
				<port id="0" precision="FP16">
					<dim>1</dim>
					<dim>32</dim>
					<dim>1</dim>
					<dim>1</dim>
				</port>
			</output>
		</layer>
		<layer id="128" name="InceptionResnetV1/Repeat/block35_3/Branch_2/Conv2d_0a_1x1/BatchNorm/cond/FusedBatchNorm_1/variance/Fused_Add_" type="Add" version="opset1">
			<data auto_broadcast="numpy"/>
			<input>
				<port id="0" precision="FP16">
					<dim>1</dim>
					<dim>32</dim>
					<dim>17</dim>
					<dim>17</dim>
				</port>
				<port id="1" precision="FP16">
					<dim>1</dim>
					<dim>32</dim>
					<dim>1</dim>
					<dim>1</dim>
				</port>
			</input>
			<output>
				<port id="2" names="InceptionResnetV1/Repeat/block35_3/Branch_2/Conv2d_0a_1x1/BatchNorm/cond/FusedBatchNorm_1:0,InceptionResnetV1/Repeat/block35_3/Branch_2/Conv2d_0a_1x1/BatchNorm/cond/Merge:0,InceptionResnetV1/Repeat/block35_3/Branch_2/Conv2d_0a_1x1/BatchNorm/cond_1/Merge:0,InceptionResnetV1/Repeat/block35_3/Branch_2/Conv2d_0a_1x1/BatchNorm/cond_1/Switch_1:0" precision="FP16">
					<dim>1</dim>
					<dim>32</dim>
					<dim>17</dim>
					<dim>17</dim>
				</port>
			</output>
		</layer>
		<layer id="129" name="InceptionResnetV1/Repeat/block35_3/Branch_2/Conv2d_0a_1x1/Relu" type="ReLU" version="opset1">
			<input>
				<port id="0" precision="FP16">
					<dim>1</dim>
					<dim>32</dim>
					<dim>17</dim>
					<dim>17</dim>
				</port>
			</input>
			<output>
				<port id="1" names="InceptionResnetV1/Repeat/block35_3/Branch_2/Conv2d_0a_1x1/Relu:0" precision="FP16">
					<dim>1</dim>
					<dim>32</dim>
					<dim>17</dim>
					<dim>17</dim>
				</port>
			</output>
		</layer>
		<layer id="130" name="InceptionResnetV1/Repeat/block35_3/Branch_2/Conv2d_0b_3x3/BatchNorm/cond/FusedBatchNorm_1/mean/Fused_Mul__copy" type="Const" version="opset1">
			<data element_type="f16" offset="1606632" shape="32, 32, 3, 3" size="18432"/>
			<output>
				<port id="0" names="InceptionResnetV1/Repeat/block35_3/Branch_2/Conv2d_0b_3x3/weights/read:0" precision="FP16">
					<dim>32</dim>
					<dim>32</dim>
					<dim>3</dim>
					<dim>3</dim>
				</port>
			</output>
		</layer>
		<layer id="131" name="InceptionResnetV1/Repeat/block35_3/Branch_2/Conv2d_0b_3x3/Conv2D" type="Convolution" version="opset1">
			<data auto_pad="same_upper" dilations="1, 1" pads_begin="1, 1" pads_end="1, 1" strides="1, 1"/>
			<input>
				<port id="0" precision="FP16">
					<dim>1</dim>
					<dim>32</dim>
					<dim>17</dim>
					<dim>17</dim>
				</port>
				<port id="1" precision="FP16">
					<dim>32</dim>
					<dim>32</dim>
					<dim>3</dim>
					<dim>3</dim>
				</port>
			</input>
			<output>
				<port id="2" precision="FP16">
					<dim>1</dim>
					<dim>32</dim>
					<dim>17</dim>
					<dim>17</dim>
				</port>
			</output>
		</layer>
		<layer id="132" name="data_add_3507435079" type="Const" version="opset1">
			<data element_type="f16" offset="1625064" shape="1, 32, 1, 1" size="64"/>
			<output>
				<port id="0" precision="FP16">
					<dim>1</dim>
					<dim>32</dim>
					<dim>1</dim>
					<dim>1</dim>
				</port>
			</output>
		</layer>
		<layer id="133" name="InceptionResnetV1/Repeat/block35_3/Branch_2/Conv2d_0b_3x3/BatchNorm/cond/FusedBatchNorm_1/variance/Fused_Add_" type="Add" version="opset1">
			<data auto_broadcast="numpy"/>
			<input>
				<port id="0" precision="FP16">
					<dim>1</dim>
					<dim>32</dim>
					<dim>17</dim>
					<dim>17</dim>
				</port>
				<port id="1" precision="FP16">
					<dim>1</dim>
					<dim>32</dim>
					<dim>1</dim>
					<dim>1</dim>
				</port>
			</input>
			<output>
				<port id="2" names="InceptionResnetV1/Repeat/block35_3/Branch_2/Conv2d_0b_3x3/BatchNorm/cond/FusedBatchNorm_1:0,InceptionResnetV1/Repeat/block35_3/Branch_2/Conv2d_0b_3x3/BatchNorm/cond/Merge:0,InceptionResnetV1/Repeat/block35_3/Branch_2/Conv2d_0b_3x3/BatchNorm/cond_1/Merge:0,InceptionResnetV1/Repeat/block35_3/Branch_2/Conv2d_0b_3x3/BatchNorm/cond_1/Switch_1:0" precision="FP16">
					<dim>1</dim>
					<dim>32</dim>
					<dim>17</dim>
					<dim>17</dim>
				</port>
			</output>
		</layer>
		<layer id="134" name="InceptionResnetV1/Repeat/block35_3/Branch_2/Conv2d_0b_3x3/Relu" type="ReLU" version="opset1">
			<input>
				<port id="0" precision="FP16">
					<dim>1</dim>
					<dim>32</dim>
					<dim>17</dim>
					<dim>17</dim>
				</port>
			</input>
			<output>
				<port id="1" names="InceptionResnetV1/Repeat/block35_3/Branch_2/Conv2d_0b_3x3/Relu:0" precision="FP16">
					<dim>1</dim>
					<dim>32</dim>
					<dim>17</dim>
					<dim>17</dim>
				</port>
			</output>
		</layer>
		<layer id="135" name="InceptionResnetV1/Repeat/block35_3/Branch_2/Conv2d_0c_3x3/BatchNorm/cond/FusedBatchNorm_1/mean/Fused_Mul__copy" type="Const" version="opset1">
			<data element_type="f16" offset="1625128" shape="32, 32, 3, 3" size="18432"/>
			<output>
				<port id="0" names="InceptionResnetV1/Repeat/block35_3/Branch_2/Conv2d_0c_3x3/weights/read:0" precision="FP16">
					<dim>32</dim>
					<dim>32</dim>
					<dim>3</dim>
					<dim>3</dim>
				</port>
			</output>
		</layer>
		<layer id="136" name="InceptionResnetV1/Repeat/block35_3/Branch_2/Conv2d_0c_3x3/Conv2D" type="Convolution" version="opset1">
			<data auto_pad="same_upper" dilations="1, 1" pads_begin="1, 1" pads_end="1, 1" strides="1, 1"/>
			<input>
				<port id="0" precision="FP16">
					<dim>1</dim>
					<dim>32</dim>
					<dim>17</dim>
					<dim>17</dim>
				</port>
				<port id="1" precision="FP16">
					<dim>32</dim>
					<dim>32</dim>
					<dim>3</dim>
					<dim>3</dim>
				</port>
			</input>
			<output>
				<port id="2" precision="FP16">
					<dim>1</dim>
					<dim>32</dim>
					<dim>17</dim>
					<dim>17</dim>
				</port>
			</output>
		</layer>
		<layer id="137" name="data_add_3508235087" type="Const" version="opset1">
			<data element_type="f16" offset="1643560" shape="1, 32, 1, 1" size="64"/>
			<output>
				<port id="0" precision="FP16">
					<dim>1</dim>
					<dim>32</dim>
					<dim>1</dim>
					<dim>1</dim>
				</port>
			</output>
		</layer>
		<layer id="138" name="InceptionResnetV1/Repeat/block35_3/Branch_2/Conv2d_0c_3x3/BatchNorm/cond/FusedBatchNorm_1/variance/Fused_Add_" type="Add" version="opset1">
			<data auto_broadcast="numpy"/>
			<input>
				<port id="0" precision="FP16">
					<dim>1</dim>
					<dim>32</dim>
					<dim>17</dim>
					<dim>17</dim>
				</port>
				<port id="1" precision="FP16">
					<dim>1</dim>
					<dim>32</dim>
					<dim>1</dim>
					<dim>1</dim>
				</port>
			</input>
			<output>
				<port id="2" names="InceptionResnetV1/Repeat/block35_3/Branch_2/Conv2d_0c_3x3/BatchNorm/cond/FusedBatchNorm_1:0,InceptionResnetV1/Repeat/block35_3/Branch_2/Conv2d_0c_3x3/BatchNorm/cond/Merge:0,InceptionResnetV1/Repeat/block35_3/Branch_2/Conv2d_0c_3x3/BatchNorm/cond_1/Merge:0,InceptionResnetV1/Repeat/block35_3/Branch_2/Conv2d_0c_3x3/BatchNorm/cond_1/Switch_1:0" precision="FP16">
					<dim>1</dim>
					<dim>32</dim>
					<dim>17</dim>
					<dim>17</dim>
				</port>
			</output>
		</layer>
		<layer id="139" name="InceptionResnetV1/Repeat/block35_3/Branch_2/Conv2d_0c_3x3/Relu" type="ReLU" version="opset1">
			<input>
				<port id="0" precision="FP16">
					<dim>1</dim>
					<dim>32</dim>
					<dim>17</dim>
					<dim>17</dim>
				</port>
			</input>
			<output>
				<port id="1" names="InceptionResnetV1/Repeat/block35_3/Branch_2/Conv2d_0c_3x3/Relu:0" precision="FP16">
					<dim>1</dim>
					<dim>32</dim>
					<dim>17</dim>
					<dim>17</dim>
				</port>
			</output>
		</layer>
		<layer id="140" name="InceptionResnetV1/Repeat/block35_3/concat" type="Concat" version="opset1">
			<data axis="1"/>
			<input>
				<port id="0" precision="FP16">
					<dim>1</dim>
					<dim>32</dim>
					<dim>17</dim>
					<dim>17</dim>
				</port>
				<port id="1" precision="FP16">
					<dim>1</dim>
					<dim>32</dim>
					<dim>17</dim>
					<dim>17</dim>
				</port>
				<port id="2" precision="FP16">
					<dim>1</dim>
					<dim>32</dim>
					<dim>17</dim>
					<dim>17</dim>
				</port>
			</input>
			<output>
				<port id="3" names="InceptionResnetV1/Repeat/block35_3/concat:0" precision="FP16">
					<dim>1</dim>
					<dim>96</dim>
					<dim>17</dim>
					<dim>17</dim>
				</port>
			</output>
		</layer>
		<layer id="141" name="InceptionResnetV1/Repeat/block35_3/mul/Fused_Mul__copy" type="Const" version="opset1">
			<data element_type="f16" offset="1643624" shape="256, 96, 1, 1" size="49152"/>
			<output>
				<port id="0" names="InceptionResnetV1/Repeat/block35_3/Conv2d_1x1/weights/read:0" precision="FP16">
					<dim>256</dim>
					<dim>96</dim>
					<dim>1</dim>
					<dim>1</dim>
				</port>
			</output>
		</layer>
		<layer id="142" name="InceptionResnetV1/Repeat/block35_3/Conv2d_1x1/Conv2D" type="Convolution" version="opset1">
			<data auto_pad="same_upper" dilations="1, 1" pads_begin="0, 0" pads_end="0, 0" strides="1, 1"/>
			<input>
				<port id="0" precision="FP16">
					<dim>1</dim>
					<dim>96</dim>
					<dim>17</dim>
					<dim>17</dim>
				</port>
				<port id="1" precision="FP16">
					<dim>256</dim>
					<dim>96</dim>
					<dim>1</dim>
					<dim>1</dim>
				</port>
			</input>
			<output>
				<port id="2" precision="FP16">
					<dim>1</dim>
					<dim>256</dim>
					<dim>17</dim>
					<dim>17</dim>
				</port>
			</output>
		</layer>
		<layer id="143" name="data_add_3511435119" type="Const" version="opset1">
			<data element_type="f16" offset="1692776" shape="1, 256, 1, 1" size="512"/>
			<output>
				<port id="0" precision="FP16">
					<dim>1</dim>
					<dim>256</dim>
					<dim>1</dim>
					<dim>1</dim>
				</port>
			</output>
		</layer>
		<layer id="144" name="InceptionResnetV1/Repeat/block35_3/Conv2d_1x1/BiasAdd/Add/Fused_Add_" type="Add" version="opset1">
			<data auto_broadcast="numpy"/>
			<input>
				<port id="0" precision="FP16">
					<dim>1</dim>
					<dim>256</dim>
					<dim>17</dim>
					<dim>17</dim>
				</port>
				<port id="1" precision="FP16">
					<dim>1</dim>
					<dim>256</dim>
					<dim>1</dim>
					<dim>1</dim>
				</port>
			</input>
			<output>
				<port id="2" names="InceptionResnetV1/Repeat/block35_3/mul:0" precision="FP16">
					<dim>1</dim>
					<dim>256</dim>
					<dim>17</dim>
					<dim>17</dim>
				</port>
			</output>
		</layer>
		<layer id="145" name="InceptionResnetV1/Repeat/block35_3/add" type="Add" version="opset1">
			<data auto_broadcast="numpy"/>
			<input>
				<port id="0" precision="FP16">
					<dim>1</dim>
					<dim>256</dim>
					<dim>17</dim>
					<dim>17</dim>
				</port>
				<port id="1" precision="FP16">
					<dim>1</dim>
					<dim>256</dim>
					<dim>17</dim>
					<dim>17</dim>
				</port>
			</input>
			<output>
				<port id="2" names="InceptionResnetV1/Repeat/block35_3/add:0" precision="FP16">
					<dim>1</dim>
					<dim>256</dim>
					<dim>17</dim>
					<dim>17</dim>
				</port>
			</output>
		</layer>
		<layer id="146" name="InceptionResnetV1/Repeat/block35_3/Relu" type="ReLU" version="opset1">
			<input>
				<port id="0" precision="FP16">
					<dim>1</dim>
					<dim>256</dim>
					<dim>17</dim>
					<dim>17</dim>
				</port>
			</input>
			<output>
				<port id="1" names="InceptionResnetV1/Repeat/block35_3/Relu:0" precision="FP16">
					<dim>1</dim>
					<dim>256</dim>
					<dim>17</dim>
					<dim>17</dim>
				</port>
			</output>
		</layer>
		<layer id="147" name="InceptionResnetV1/Repeat/block35_4/Branch_0/Conv2d_1x1/BatchNorm/cond/FusedBatchNorm_1/mean/Fused_Mul__copy" type="Const" version="opset1">
			<data element_type="f16" offset="1693288" shape="32, 256, 1, 1" size="16384"/>
			<output>
				<port id="0" names="InceptionResnetV1/Repeat/block35_4/Branch_0/Conv2d_1x1/weights/read:0" precision="FP16">
					<dim>32</dim>
					<dim>256</dim>
					<dim>1</dim>
					<dim>1</dim>
				</port>
			</output>
		</layer>
		<layer id="148" name="InceptionResnetV1/Repeat/block35_4/Branch_0/Conv2d_1x1/Conv2D" type="Convolution" version="opset1">
			<data auto_pad="same_upper" dilations="1, 1" pads_begin="0, 0" pads_end="0, 0" strides="1, 1"/>
			<input>
				<port id="0" precision="FP16">
					<dim>1</dim>
					<dim>256</dim>
					<dim>17</dim>
					<dim>17</dim>
				</port>
				<port id="1" precision="FP16">
					<dim>32</dim>
					<dim>256</dim>
					<dim>1</dim>
					<dim>1</dim>
				</port>
			</input>
			<output>
				<port id="2" precision="FP16">
					<dim>1</dim>
					<dim>32</dim>
					<dim>17</dim>
					<dim>17</dim>
				</port>
			</output>
		</layer>
		<layer id="149" name="data_add_3516235167" type="Const" version="opset1">
			<data element_type="f16" offset="1709672" shape="1, 32, 1, 1" size="64"/>
			<output>
				<port id="0" precision="FP16">
					<dim>1</dim>
					<dim>32</dim>
					<dim>1</dim>
					<dim>1</dim>
				</port>
			</output>
		</layer>
		<layer id="150" name="InceptionResnetV1/Repeat/block35_4/Branch_0/Conv2d_1x1/BatchNorm/cond/FusedBatchNorm_1/variance/Fused_Add_" type="Add" version="opset1">
			<data auto_broadcast="numpy"/>
			<input>
				<port id="0" precision="FP16">
					<dim>1</dim>
					<dim>32</dim>
					<dim>17</dim>
					<dim>17</dim>
				</port>
				<port id="1" precision="FP16">
					<dim>1</dim>
					<dim>32</dim>
					<dim>1</dim>
					<dim>1</dim>
				</port>
			</input>
			<output>
				<port id="2" names="InceptionResnetV1/Repeat/block35_4/Branch_0/Conv2d_1x1/BatchNorm/cond/FusedBatchNorm_1:0,InceptionResnetV1/Repeat/block35_4/Branch_0/Conv2d_1x1/BatchNorm/cond/Merge:0,InceptionResnetV1/Repeat/block35_4/Branch_0/Conv2d_1x1/BatchNorm/cond_1/Merge:0,InceptionResnetV1/Repeat/block35_4/Branch_0/Conv2d_1x1/BatchNorm/cond_1/Switch_1:0" precision="FP16">
					<dim>1</dim>
					<dim>32</dim>
					<dim>17</dim>
					<dim>17</dim>
				</port>
			</output>
		</layer>
		<layer id="151" name="InceptionResnetV1/Repeat/block35_4/Branch_0/Conv2d_1x1/Relu" type="ReLU" version="opset1">
			<input>
				<port id="0" precision="FP16">
					<dim>1</dim>
					<dim>32</dim>
					<dim>17</dim>
					<dim>17</dim>
				</port>
			</input>
			<output>
				<port id="1" names="InceptionResnetV1/Repeat/block35_4/Branch_0/Conv2d_1x1/Relu:0" precision="FP16">
					<dim>1</dim>
					<dim>32</dim>
					<dim>17</dim>
					<dim>17</dim>
				</port>
			</output>
		</layer>
		<layer id="152" name="InceptionResnetV1/Repeat/block35_4/Branch_1/Conv2d_0a_1x1/BatchNorm/cond/FusedBatchNorm_1/mean/Fused_Mul__copy" type="Const" version="opset1">
			<data element_type="f16" offset="1709736" shape="32, 256, 1, 1" size="16384"/>
			<output>
				<port id="0" names="InceptionResnetV1/Repeat/block35_4/Branch_1/Conv2d_0a_1x1/weights/read:0" precision="FP16">
					<dim>32</dim>
					<dim>256</dim>
					<dim>1</dim>
					<dim>1</dim>
				</port>
			</output>
		</layer>
		<layer id="153" name="InceptionResnetV1/Repeat/block35_4/Branch_1/Conv2d_0a_1x1/Conv2D" type="Convolution" version="opset1">
			<data auto_pad="same_upper" dilations="1, 1" pads_begin="0, 0" pads_end="0, 0" strides="1, 1"/>
			<input>
				<port id="0" precision="FP16">
					<dim>1</dim>
					<dim>256</dim>
					<dim>17</dim>
					<dim>17</dim>
				</port>
				<port id="1" precision="FP16">
					<dim>32</dim>
					<dim>256</dim>
					<dim>1</dim>
					<dim>1</dim>
				</port>
			</input>
			<output>
				<port id="2" precision="FP16">
					<dim>1</dim>
					<dim>32</dim>
					<dim>17</dim>
					<dim>17</dim>
				</port>
			</output>
		</layer>
		<layer id="154" name="data_add_3514635151" type="Const" version="opset1">
			<data element_type="f16" offset="1726120" shape="1, 32, 1, 1" size="64"/>
			<output>
				<port id="0" precision="FP16">
					<dim>1</dim>
					<dim>32</dim>
					<dim>1</dim>
					<dim>1</dim>
				</port>
			</output>
		</layer>
		<layer id="155" name="InceptionResnetV1/Repeat/block35_4/Branch_1/Conv2d_0a_1x1/BatchNorm/cond/FusedBatchNorm_1/variance/Fused_Add_" type="Add" version="opset1">
			<data auto_broadcast="numpy"/>
			<input>
				<port id="0" precision="FP16">
					<dim>1</dim>
					<dim>32</dim>
					<dim>17</dim>
					<dim>17</dim>
				</port>
				<port id="1" precision="FP16">
					<dim>1</dim>
					<dim>32</dim>
					<dim>1</dim>
					<dim>1</dim>
				</port>
			</input>
			<output>
				<port id="2" names="InceptionResnetV1/Repeat/block35_4/Branch_1/Conv2d_0a_1x1/BatchNorm/cond/FusedBatchNorm_1:0,InceptionResnetV1/Repeat/block35_4/Branch_1/Conv2d_0a_1x1/BatchNorm/cond/Merge:0,InceptionResnetV1/Repeat/block35_4/Branch_1/Conv2d_0a_1x1/BatchNorm/cond_1/Merge:0,InceptionResnetV1/Repeat/block35_4/Branch_1/Conv2d_0a_1x1/BatchNorm/cond_1/Switch_1:0" precision="FP16">
					<dim>1</dim>
					<dim>32</dim>
					<dim>17</dim>
					<dim>17</dim>
				</port>
			</output>
		</layer>
		<layer id="156" name="InceptionResnetV1/Repeat/block35_4/Branch_1/Conv2d_0a_1x1/Relu" type="ReLU" version="opset1">
			<input>
				<port id="0" precision="FP16">
					<dim>1</dim>
					<dim>32</dim>
					<dim>17</dim>
					<dim>17</dim>
				</port>
			</input>
			<output>
				<port id="1" names="InceptionResnetV1/Repeat/block35_4/Branch_1/Conv2d_0a_1x1/Relu:0" precision="FP16">
					<dim>1</dim>
					<dim>32</dim>
					<dim>17</dim>
					<dim>17</dim>
				</port>
			</output>
		</layer>
		<layer id="157" name="InceptionResnetV1/Repeat/block35_4/Branch_1/Conv2d_0b_3x3/BatchNorm/cond/FusedBatchNorm_1/mean/Fused_Mul__copy" type="Const" version="opset1">
			<data element_type="f16" offset="1726184" shape="32, 32, 3, 3" size="18432"/>
			<output>
				<port id="0" names="InceptionResnetV1/Repeat/block35_4/Branch_1/Conv2d_0b_3x3/weights/read:0" precision="FP16">
					<dim>32</dim>
					<dim>32</dim>
					<dim>3</dim>
					<dim>3</dim>
				</port>
			</output>
		</layer>
		<layer id="158" name="InceptionResnetV1/Repeat/block35_4/Branch_1/Conv2d_0b_3x3/Conv2D" type="Convolution" version="opset1">
			<data auto_pad="same_upper" dilations="1, 1" pads_begin="1, 1" pads_end="1, 1" strides="1, 1"/>
			<input>
				<port id="0" precision="FP16">
					<dim>1</dim>
					<dim>32</dim>
					<dim>17</dim>
					<dim>17</dim>
				</port>
				<port id="1" precision="FP16">
					<dim>32</dim>
					<dim>32</dim>
					<dim>3</dim>
					<dim>3</dim>
				</port>
			</input>
			<output>
				<port id="2" precision="FP16">
					<dim>1</dim>
					<dim>32</dim>
					<dim>17</dim>
					<dim>17</dim>
				</port>
			</output>
		</layer>
		<layer id="159" name="data_add_3515435159" type="Const" version="opset1">
			<data element_type="f16" offset="1744616" shape="1, 32, 1, 1" size="64"/>
			<output>
				<port id="0" precision="FP16">
					<dim>1</dim>
					<dim>32</dim>
					<dim>1</dim>
					<dim>1</dim>
				</port>
			</output>
		</layer>
		<layer id="160" name="InceptionResnetV1/Repeat/block35_4/Branch_1/Conv2d_0b_3x3/BatchNorm/cond/FusedBatchNorm_1/variance/Fused_Add_" type="Add" version="opset1">
			<data auto_broadcast="numpy"/>
			<input>
				<port id="0" precision="FP16">
					<dim>1</dim>
					<dim>32</dim>
					<dim>17</dim>
					<dim>17</dim>
				</port>
				<port id="1" precision="FP16">
					<dim>1</dim>
					<dim>32</dim>
					<dim>1</dim>
					<dim>1</dim>
				</port>
			</input>
			<output>
				<port id="2" names="InceptionResnetV1/Repeat/block35_4/Branch_1/Conv2d_0b_3x3/BatchNorm/cond/FusedBatchNorm_1:0,InceptionResnetV1/Repeat/block35_4/Branch_1/Conv2d_0b_3x3/BatchNorm/cond/Merge:0,InceptionResnetV1/Repeat/block35_4/Branch_1/Conv2d_0b_3x3/BatchNorm/cond_1/Merge:0,InceptionResnetV1/Repeat/block35_4/Branch_1/Conv2d_0b_3x3/BatchNorm/cond_1/Switch_1:0" precision="FP16">
					<dim>1</dim>
					<dim>32</dim>
					<dim>17</dim>
					<dim>17</dim>
				</port>
			</output>
		</layer>
		<layer id="161" name="InceptionResnetV1/Repeat/block35_4/Branch_1/Conv2d_0b_3x3/Relu" type="ReLU" version="opset1">
			<input>
				<port id="0" precision="FP16">
					<dim>1</dim>
					<dim>32</dim>
					<dim>17</dim>
					<dim>17</dim>
				</port>
			</input>
			<output>
				<port id="1" names="InceptionResnetV1/Repeat/block35_4/Branch_1/Conv2d_0b_3x3/Relu:0" precision="FP16">
					<dim>1</dim>
					<dim>32</dim>
					<dim>17</dim>
					<dim>17</dim>
				</port>
			</output>
		</layer>
		<layer id="162" name="InceptionResnetV1/Repeat/block35_4/Branch_2/Conv2d_0a_1x1/BatchNorm/cond/FusedBatchNorm_1/mean/Fused_Mul__copy" type="Const" version="opset1">
			<data element_type="f16" offset="1744680" shape="32, 256, 1, 1" size="16384"/>
			<output>
				<port id="0" names="InceptionResnetV1/Repeat/block35_4/Branch_2/Conv2d_0a_1x1/weights/read:0" precision="FP16">
					<dim>32</dim>
					<dim>256</dim>
					<dim>1</dim>
					<dim>1</dim>
				</port>
			</output>
		</layer>
		<layer id="163" name="InceptionResnetV1/Repeat/block35_4/Branch_2/Conv2d_0a_1x1/Conv2D" type="Convolution" version="opset1">
			<data auto_pad="same_upper" dilations="1, 1" pads_begin="0, 0" pads_end="0, 0" strides="1, 1"/>
			<input>
				<port id="0" precision="FP16">
					<dim>1</dim>
					<dim>256</dim>
					<dim>17</dim>
					<dim>17</dim>
				</port>
				<port id="1" precision="FP16">
					<dim>32</dim>
					<dim>256</dim>
					<dim>1</dim>
					<dim>1</dim>
				</port>
			</input>
			<output>
				<port id="2" precision="FP16">
					<dim>1</dim>
					<dim>32</dim>
					<dim>17</dim>
					<dim>17</dim>
				</port>
			</output>
		</layer>
		<layer id="164" name="data_add_3512235127" type="Const" version="opset1">
			<data element_type="f16" offset="1761064" shape="1, 32, 1, 1" size="64"/>
			<output>
				<port id="0" precision="FP16">
					<dim>1</dim>
					<dim>32</dim>
					<dim>1</dim>
					<dim>1</dim>
				</port>
			</output>
		</layer>
		<layer id="165" name="InceptionResnetV1/Repeat/block35_4/Branch_2/Conv2d_0a_1x1/BatchNorm/cond/FusedBatchNorm_1/variance/Fused_Add_" type="Add" version="opset1">
			<data auto_broadcast="numpy"/>
			<input>
				<port id="0" precision="FP16">
					<dim>1</dim>
					<dim>32</dim>
					<dim>17</dim>
					<dim>17</dim>
				</port>
				<port id="1" precision="FP16">
					<dim>1</dim>
					<dim>32</dim>
					<dim>1</dim>
					<dim>1</dim>
				</port>
			</input>
			<output>
				<port id="2" names="InceptionResnetV1/Repeat/block35_4/Branch_2/Conv2d_0a_1x1/BatchNorm/cond/FusedBatchNorm_1:0,InceptionResnetV1/Repeat/block35_4/Branch_2/Conv2d_0a_1x1/BatchNorm/cond/Merge:0,InceptionResnetV1/Repeat/block35_4/Branch_2/Conv2d_0a_1x1/BatchNorm/cond_1/Merge:0,InceptionResnetV1/Repeat/block35_4/Branch_2/Conv2d_0a_1x1/BatchNorm/cond_1/Switch_1:0" precision="FP16">
					<dim>1</dim>
					<dim>32</dim>
					<dim>17</dim>
					<dim>17</dim>
				</port>
			</output>
		</layer>
		<layer id="166" name="InceptionResnetV1/Repeat/block35_4/Branch_2/Conv2d_0a_1x1/Relu" type="ReLU" version="opset1">
			<input>
				<port id="0" precision="FP16">
					<dim>1</dim>
					<dim>32</dim>
					<dim>17</dim>
					<dim>17</dim>
				</port>
			</input>
			<output>
				<port id="1" names="InceptionResnetV1/Repeat/block35_4/Branch_2/Conv2d_0a_1x1/Relu:0" precision="FP16">
					<dim>1</dim>
					<dim>32</dim>
					<dim>17</dim>
					<dim>17</dim>
				</port>
			</output>
		</layer>
		<layer id="167" name="InceptionResnetV1/Repeat/block35_4/Branch_2/Conv2d_0b_3x3/BatchNorm/cond/FusedBatchNorm_1/mean/Fused_Mul__copy" type="Const" version="opset1">
			<data element_type="f16" offset="1761128" shape="32, 32, 3, 3" size="18432"/>
			<output>
				<port id="0" names="InceptionResnetV1/Repeat/block35_4/Branch_2/Conv2d_0b_3x3/weights/read:0" precision="FP16">
					<dim>32</dim>
					<dim>32</dim>
					<dim>3</dim>
					<dim>3</dim>
				</port>
			</output>
		</layer>
		<layer id="168" name="InceptionResnetV1/Repeat/block35_4/Branch_2/Conv2d_0b_3x3/Conv2D" type="Convolution" version="opset1">
			<data auto_pad="same_upper" dilations="1, 1" pads_begin="1, 1" pads_end="1, 1" strides="1, 1"/>
			<input>
				<port id="0" precision="FP16">
					<dim>1</dim>
					<dim>32</dim>
					<dim>17</dim>
					<dim>17</dim>
				</port>
				<port id="1" precision="FP16">
					<dim>32</dim>
					<dim>32</dim>
					<dim>3</dim>
					<dim>3</dim>
				</port>
			</input>
			<output>
				<port id="2" precision="FP16">
					<dim>1</dim>
					<dim>32</dim>
					<dim>17</dim>
					<dim>17</dim>
				</port>
			</output>
		</layer>
		<layer id="169" name="data_add_3513035135" type="Const" version="opset1">
			<data element_type="f16" offset="1779560" shape="1, 32, 1, 1" size="64"/>
			<output>
				<port id="0" precision="FP16">
					<dim>1</dim>
					<dim>32</dim>
					<dim>1</dim>
					<dim>1</dim>
				</port>
			</output>
		</layer>
		<layer id="170" name="InceptionResnetV1/Repeat/block35_4/Branch_2/Conv2d_0b_3x3/BatchNorm/cond/FusedBatchNorm_1/variance/Fused_Add_" type="Add" version="opset1">
			<data auto_broadcast="numpy"/>
			<input>
				<port id="0" precision="FP16">
					<dim>1</dim>
					<dim>32</dim>
					<dim>17</dim>
					<dim>17</dim>
				</port>
				<port id="1" precision="FP16">
					<dim>1</dim>
					<dim>32</dim>
					<dim>1</dim>
					<dim>1</dim>
				</port>
			</input>
			<output>
				<port id="2" names="InceptionResnetV1/Repeat/block35_4/Branch_2/Conv2d_0b_3x3/BatchNorm/cond/FusedBatchNorm_1:0,InceptionResnetV1/Repeat/block35_4/Branch_2/Conv2d_0b_3x3/BatchNorm/cond/Merge:0,InceptionResnetV1/Repeat/block35_4/Branch_2/Conv2d_0b_3x3/BatchNorm/cond_1/Merge:0,InceptionResnetV1/Repeat/block35_4/Branch_2/Conv2d_0b_3x3/BatchNorm/cond_1/Switch_1:0" precision="FP16">
					<dim>1</dim>
					<dim>32</dim>
					<dim>17</dim>
					<dim>17</dim>
				</port>
			</output>
		</layer>
		<layer id="171" name="InceptionResnetV1/Repeat/block35_4/Branch_2/Conv2d_0b_3x3/Relu" type="ReLU" version="opset1">
			<input>
				<port id="0" precision="FP16">
					<dim>1</dim>
					<dim>32</dim>
					<dim>17</dim>
					<dim>17</dim>
				</port>
			</input>
			<output>
				<port id="1" names="InceptionResnetV1/Repeat/block35_4/Branch_2/Conv2d_0b_3x3/Relu:0" precision="FP16">
					<dim>1</dim>
					<dim>32</dim>
					<dim>17</dim>
					<dim>17</dim>
				</port>
			</output>
		</layer>
		<layer id="172" name="InceptionResnetV1/Repeat/block35_4/Branch_2/Conv2d_0c_3x3/BatchNorm/cond/FusedBatchNorm_1/mean/Fused_Mul__copy" type="Const" version="opset1">
			<data element_type="f16" offset="1779624" shape="32, 32, 3, 3" size="18432"/>
			<output>
				<port id="0" names="InceptionResnetV1/Repeat/block35_4/Branch_2/Conv2d_0c_3x3/weights/read:0" precision="FP16">
					<dim>32</dim>
					<dim>32</dim>
					<dim>3</dim>
					<dim>3</dim>
				</port>
			</output>
		</layer>
		<layer id="173" name="InceptionResnetV1/Repeat/block35_4/Branch_2/Conv2d_0c_3x3/Conv2D" type="Convolution" version="opset1">
			<data auto_pad="same_upper" dilations="1, 1" pads_begin="1, 1" pads_end="1, 1" strides="1, 1"/>
			<input>
				<port id="0" precision="FP16">
					<dim>1</dim>
					<dim>32</dim>
					<dim>17</dim>
					<dim>17</dim>
				</port>
				<port id="1" precision="FP16">
					<dim>32</dim>
					<dim>32</dim>
					<dim>3</dim>
					<dim>3</dim>
				</port>
			</input>
			<output>
				<port id="2" precision="FP16">
					<dim>1</dim>
					<dim>32</dim>
					<dim>17</dim>
					<dim>17</dim>
				</port>
			</output>
		</layer>
		<layer id="174" name="data_add_3513835143" type="Const" version="opset1">
			<data element_type="f16" offset="1798056" shape="1, 32, 1, 1" size="64"/>
			<output>
				<port id="0" precision="FP16">
					<dim>1</dim>
					<dim>32</dim>
					<dim>1</dim>
					<dim>1</dim>
				</port>
			</output>
		</layer>
		<layer id="175" name="InceptionResnetV1/Repeat/block35_4/Branch_2/Conv2d_0c_3x3/BatchNorm/cond/FusedBatchNorm_1/variance/Fused_Add_" type="Add" version="opset1">
			<data auto_broadcast="numpy"/>
			<input>
				<port id="0" precision="FP16">
					<dim>1</dim>
					<dim>32</dim>
					<dim>17</dim>
					<dim>17</dim>
				</port>
				<port id="1" precision="FP16">
					<dim>1</dim>
					<dim>32</dim>
					<dim>1</dim>
					<dim>1</dim>
				</port>
			</input>
			<output>
				<port id="2" names="InceptionResnetV1/Repeat/block35_4/Branch_2/Conv2d_0c_3x3/BatchNorm/cond/FusedBatchNorm_1:0,InceptionResnetV1/Repeat/block35_4/Branch_2/Conv2d_0c_3x3/BatchNorm/cond/Merge:0,InceptionResnetV1/Repeat/block35_4/Branch_2/Conv2d_0c_3x3/BatchNorm/cond_1/Merge:0,InceptionResnetV1/Repeat/block35_4/Branch_2/Conv2d_0c_3x3/BatchNorm/cond_1/Switch_1:0" precision="FP16">
					<dim>1</dim>
					<dim>32</dim>
					<dim>17</dim>
					<dim>17</dim>
				</port>
			</output>
		</layer>
		<layer id="176" name="InceptionResnetV1/Repeat/block35_4/Branch_2/Conv2d_0c_3x3/Relu" type="ReLU" version="opset1">
			<input>
				<port id="0" precision="FP16">
					<dim>1</dim>
					<dim>32</dim>
					<dim>17</dim>
					<dim>17</dim>
				</port>
			</input>
			<output>
				<port id="1" names="InceptionResnetV1/Repeat/block35_4/Branch_2/Conv2d_0c_3x3/Relu:0" precision="FP16">
					<dim>1</dim>
					<dim>32</dim>
					<dim>17</dim>
					<dim>17</dim>
				</port>
			</output>
		</layer>
		<layer id="177" name="InceptionResnetV1/Repeat/block35_4/concat" type="Concat" version="opset1">
			<data axis="1"/>
			<input>
				<port id="0" precision="FP16">
					<dim>1</dim>
					<dim>32</dim>
					<dim>17</dim>
					<dim>17</dim>
				</port>
				<port id="1" precision="FP16">
					<dim>1</dim>
					<dim>32</dim>
					<dim>17</dim>
					<dim>17</dim>
				</port>
				<port id="2" precision="FP16">
					<dim>1</dim>
					<dim>32</dim>
					<dim>17</dim>
					<dim>17</dim>
				</port>
			</input>
			<output>
				<port id="3" names="InceptionResnetV1/Repeat/block35_4/concat:0" precision="FP16">
					<dim>1</dim>
					<dim>96</dim>
					<dim>17</dim>
					<dim>17</dim>
				</port>
			</output>
		</layer>
		<layer id="178" name="InceptionResnetV1/Repeat/block35_4/mul/Fused_Mul__copy" type="Const" version="opset1">
			<data element_type="f16" offset="1798120" shape="256, 96, 1, 1" size="49152"/>
			<output>
				<port id="0" names="InceptionResnetV1/Repeat/block35_4/Conv2d_1x1/weights/read:0" precision="FP16">
					<dim>256</dim>
					<dim>96</dim>
					<dim>1</dim>
					<dim>1</dim>
				</port>
			</output>
		</layer>
		<layer id="179" name="InceptionResnetV1/Repeat/block35_4/Conv2d_1x1/Conv2D" type="Convolution" version="opset1">
			<data auto_pad="same_upper" dilations="1, 1" pads_begin="0, 0" pads_end="0, 0" strides="1, 1"/>
			<input>
				<port id="0" precision="FP16">
					<dim>1</dim>
					<dim>96</dim>
					<dim>17</dim>
					<dim>17</dim>
				</port>
				<port id="1" precision="FP16">
					<dim>256</dim>
					<dim>96</dim>
					<dim>1</dim>
					<dim>1</dim>
				</port>
			</input>
			<output>
				<port id="2" precision="FP16">
					<dim>1</dim>
					<dim>256</dim>
					<dim>17</dim>
					<dim>17</dim>
				</port>
			</output>
		</layer>
		<layer id="180" name="data_add_3517035175" type="Const" version="opset1">
			<data element_type="f16" offset="1847272" shape="1, 256, 1, 1" size="512"/>
			<output>
				<port id="0" precision="FP16">
					<dim>1</dim>
					<dim>256</dim>
					<dim>1</dim>
					<dim>1</dim>
				</port>
			</output>
		</layer>
		<layer id="181" name="InceptionResnetV1/Repeat/block35_4/Conv2d_1x1/BiasAdd/Add/Fused_Add_" type="Add" version="opset1">
			<data auto_broadcast="numpy"/>
			<input>
				<port id="0" precision="FP16">
					<dim>1</dim>
					<dim>256</dim>
					<dim>17</dim>
					<dim>17</dim>
				</port>
				<port id="1" precision="FP16">
					<dim>1</dim>
					<dim>256</dim>
					<dim>1</dim>
					<dim>1</dim>
				</port>
			</input>
			<output>
				<port id="2" names="InceptionResnetV1/Repeat/block35_4/mul:0" precision="FP16">
					<dim>1</dim>
					<dim>256</dim>
					<dim>17</dim>
					<dim>17</dim>
				</port>
			</output>
		</layer>
		<layer id="182" name="InceptionResnetV1/Repeat/block35_4/add" type="Add" version="opset1">
			<data auto_broadcast="numpy"/>
			<input>
				<port id="0" precision="FP16">
					<dim>1</dim>
					<dim>256</dim>
					<dim>17</dim>
					<dim>17</dim>
				</port>
				<port id="1" precision="FP16">
					<dim>1</dim>
					<dim>256</dim>
					<dim>17</dim>
					<dim>17</dim>
				</port>
			</input>
			<output>
				<port id="2" names="InceptionResnetV1/Repeat/block35_4/add:0" precision="FP16">
					<dim>1</dim>
					<dim>256</dim>
					<dim>17</dim>
					<dim>17</dim>
				</port>
			</output>
		</layer>
		<layer id="183" name="InceptionResnetV1/Repeat/block35_4/Relu" type="ReLU" version="opset1">
			<input>
				<port id="0" precision="FP16">
					<dim>1</dim>
					<dim>256</dim>
					<dim>17</dim>
					<dim>17</dim>
				</port>
			</input>
			<output>
				<port id="1" names="InceptionResnetV1/Repeat/block35_4/Relu:0" precision="FP16">
					<dim>1</dim>
					<dim>256</dim>
					<dim>17</dim>
					<dim>17</dim>
				</port>
			</output>
		</layer>
		<layer id="184" name="InceptionResnetV1/Repeat/block35_5/Branch_0/Conv2d_1x1/BatchNorm/cond/FusedBatchNorm_1/mean/Fused_Mul__copy" type="Const" version="opset1">
			<data element_type="f16" offset="1847784" shape="32, 256, 1, 1" size="16384"/>
			<output>
				<port id="0" names="InceptionResnetV1/Repeat/block35_5/Branch_0/Conv2d_1x1/weights/read:0" precision="FP16">
					<dim>32</dim>
					<dim>256</dim>
					<dim>1</dim>
					<dim>1</dim>
				</port>
			</output>
		</layer>
		<layer id="185" name="InceptionResnetV1/Repeat/block35_5/Branch_0/Conv2d_1x1/Conv2D" type="Convolution" version="opset1">
			<data auto_pad="same_upper" dilations="1, 1" pads_begin="0, 0" pads_end="0, 0" strides="1, 1"/>
			<input>
				<port id="0" precision="FP16">
					<dim>1</dim>
					<dim>256</dim>
					<dim>17</dim>
					<dim>17</dim>
				</port>
				<port id="1" precision="FP16">
					<dim>32</dim>
					<dim>256</dim>
					<dim>1</dim>
					<dim>1</dim>
				</port>
			</input>
			<output>
				<port id="2" precision="FP16">
					<dim>1</dim>
					<dim>32</dim>
					<dim>17</dim>
					<dim>17</dim>
				</port>
			</output>
		</layer>
		<layer id="186" name="data_add_3521835223" type="Const" version="opset1">
			<data element_type="f16" offset="1864168" shape="1, 32, 1, 1" size="64"/>
			<output>
				<port id="0" precision="FP16">
					<dim>1</dim>
					<dim>32</dim>
					<dim>1</dim>
					<dim>1</dim>
				</port>
			</output>
		</layer>
		<layer id="187" name="InceptionResnetV1/Repeat/block35_5/Branch_0/Conv2d_1x1/BatchNorm/cond/FusedBatchNorm_1/variance/Fused_Add_" type="Add" version="opset1">
			<data auto_broadcast="numpy"/>
			<input>
				<port id="0" precision="FP16">
					<dim>1</dim>
					<dim>32</dim>
					<dim>17</dim>
					<dim>17</dim>
				</port>
				<port id="1" precision="FP16">
					<dim>1</dim>
					<dim>32</dim>
					<dim>1</dim>
					<dim>1</dim>
				</port>
			</input>
			<output>
				<port id="2" names="InceptionResnetV1/Repeat/block35_5/Branch_0/Conv2d_1x1/BatchNorm/cond/FusedBatchNorm_1:0,InceptionResnetV1/Repeat/block35_5/Branch_0/Conv2d_1x1/BatchNorm/cond/Merge:0,InceptionResnetV1/Repeat/block35_5/Branch_0/Conv2d_1x1/BatchNorm/cond_1/Merge:0,InceptionResnetV1/Repeat/block35_5/Branch_0/Conv2d_1x1/BatchNorm/cond_1/Switch_1:0" precision="FP16">
					<dim>1</dim>
					<dim>32</dim>
					<dim>17</dim>
					<dim>17</dim>
				</port>
			</output>
		</layer>
		<layer id="188" name="InceptionResnetV1/Repeat/block35_5/Branch_0/Conv2d_1x1/Relu" type="ReLU" version="opset1">
			<input>
				<port id="0" precision="FP16">
					<dim>1</dim>
					<dim>32</dim>
					<dim>17</dim>
					<dim>17</dim>
				</port>
			</input>
			<output>
				<port id="1" names="InceptionResnetV1/Repeat/block35_5/Branch_0/Conv2d_1x1/Relu:0" precision="FP16">
					<dim>1</dim>
					<dim>32</dim>
					<dim>17</dim>
					<dim>17</dim>
				</port>
			</output>
		</layer>
		<layer id="189" name="InceptionResnetV1/Repeat/block35_5/Branch_1/Conv2d_0a_1x1/BatchNorm/cond/FusedBatchNorm_1/mean/Fused_Mul__copy" type="Const" version="opset1">
			<data element_type="f16" offset="1864232" shape="32, 256, 1, 1" size="16384"/>
			<output>
				<port id="0" names="InceptionResnetV1/Repeat/block35_5/Branch_1/Conv2d_0a_1x1/weights/read:0" precision="FP16">
					<dim>32</dim>
					<dim>256</dim>
					<dim>1</dim>
					<dim>1</dim>
				</port>
			</output>
		</layer>
		<layer id="190" name="InceptionResnetV1/Repeat/block35_5/Branch_1/Conv2d_0a_1x1/Conv2D" type="Convolution" version="opset1">
			<data auto_pad="same_upper" dilations="1, 1" pads_begin="0, 0" pads_end="0, 0" strides="1, 1"/>
			<input>
				<port id="0" precision="FP16">
					<dim>1</dim>
					<dim>256</dim>
					<dim>17</dim>
					<dim>17</dim>
				</port>
				<port id="1" precision="FP16">
					<dim>32</dim>
					<dim>256</dim>
					<dim>1</dim>
					<dim>1</dim>
				</port>
			</input>
			<output>
				<port id="2" precision="FP16">
					<dim>1</dim>
					<dim>32</dim>
					<dim>17</dim>
					<dim>17</dim>
				</port>
			</output>
		</layer>
		<layer id="191" name="data_add_3520235207" type="Const" version="opset1">
			<data element_type="f16" offset="1880616" shape="1, 32, 1, 1" size="64"/>
			<output>
				<port id="0" precision="FP16">
					<dim>1</dim>
					<dim>32</dim>
					<dim>1</dim>
					<dim>1</dim>
				</port>
			</output>
		</layer>
		<layer id="192" name="InceptionResnetV1/Repeat/block35_5/Branch_1/Conv2d_0a_1x1/BatchNorm/cond/FusedBatchNorm_1/variance/Fused_Add_" type="Add" version="opset1">
			<data auto_broadcast="numpy"/>
			<input>
				<port id="0" precision="FP16">
					<dim>1</dim>
					<dim>32</dim>
					<dim>17</dim>
					<dim>17</dim>
				</port>
				<port id="1" precision="FP16">
					<dim>1</dim>
					<dim>32</dim>
					<dim>1</dim>
					<dim>1</dim>
				</port>
			</input>
			<output>
				<port id="2" names="InceptionResnetV1/Repeat/block35_5/Branch_1/Conv2d_0a_1x1/BatchNorm/cond/FusedBatchNorm_1:0,InceptionResnetV1/Repeat/block35_5/Branch_1/Conv2d_0a_1x1/BatchNorm/cond/Merge:0,InceptionResnetV1/Repeat/block35_5/Branch_1/Conv2d_0a_1x1/BatchNorm/cond_1/Merge:0,InceptionResnetV1/Repeat/block35_5/Branch_1/Conv2d_0a_1x1/BatchNorm/cond_1/Switch_1:0" precision="FP16">
					<dim>1</dim>
					<dim>32</dim>
					<dim>17</dim>
					<dim>17</dim>
				</port>
			</output>
		</layer>
		<layer id="193" name="InceptionResnetV1/Repeat/block35_5/Branch_1/Conv2d_0a_1x1/Relu" type="ReLU" version="opset1">
			<input>
				<port id="0" precision="FP16">
					<dim>1</dim>
					<dim>32</dim>
					<dim>17</dim>
					<dim>17</dim>
				</port>
			</input>
			<output>
				<port id="1" names="InceptionResnetV1/Repeat/block35_5/Branch_1/Conv2d_0a_1x1/Relu:0" precision="FP16">
					<dim>1</dim>
					<dim>32</dim>
					<dim>17</dim>
					<dim>17</dim>
				</port>
			</output>
		</layer>
		<layer id="194" name="InceptionResnetV1/Repeat/block35_5/Branch_1/Conv2d_0b_3x3/BatchNorm/cond/FusedBatchNorm_1/mean/Fused_Mul__copy" type="Const" version="opset1">
			<data element_type="f16" offset="1880680" shape="32, 32, 3, 3" size="18432"/>
			<output>
				<port id="0" names="InceptionResnetV1/Repeat/block35_5/Branch_1/Conv2d_0b_3x3/weights/read:0" precision="FP16">
					<dim>32</dim>
					<dim>32</dim>
					<dim>3</dim>
					<dim>3</dim>
				</port>
			</output>
		</layer>
		<layer id="195" name="InceptionResnetV1/Repeat/block35_5/Branch_1/Conv2d_0b_3x3/Conv2D" type="Convolution" version="opset1">
			<data auto_pad="same_upper" dilations="1, 1" pads_begin="1, 1" pads_end="1, 1" strides="1, 1"/>
			<input>
				<port id="0" precision="FP16">
					<dim>1</dim>
					<dim>32</dim>
					<dim>17</dim>
					<dim>17</dim>
				</port>
				<port id="1" precision="FP16">
					<dim>32</dim>
					<dim>32</dim>
					<dim>3</dim>
					<dim>3</dim>
				</port>
			</input>
			<output>
				<port id="2" precision="FP16">
					<dim>1</dim>
					<dim>32</dim>
					<dim>17</dim>
					<dim>17</dim>
				</port>
			</output>
		</layer>
		<layer id="196" name="data_add_3521035215" type="Const" version="opset1">
			<data element_type="f16" offset="1899112" shape="1, 32, 1, 1" size="64"/>
			<output>
				<port id="0" precision="FP16">
					<dim>1</dim>
					<dim>32</dim>
					<dim>1</dim>
					<dim>1</dim>
				</port>
			</output>
		</layer>
		<layer id="197" name="InceptionResnetV1/Repeat/block35_5/Branch_1/Conv2d_0b_3x3/BatchNorm/cond/FusedBatchNorm_1/variance/Fused_Add_" type="Add" version="opset1">
			<data auto_broadcast="numpy"/>
			<input>
				<port id="0" precision="FP16">
					<dim>1</dim>
					<dim>32</dim>
					<dim>17</dim>
					<dim>17</dim>
				</port>
				<port id="1" precision="FP16">
					<dim>1</dim>
					<dim>32</dim>
					<dim>1</dim>
					<dim>1</dim>
				</port>
			</input>
			<output>
				<port id="2" names="InceptionResnetV1/Repeat/block35_5/Branch_1/Conv2d_0b_3x3/BatchNorm/cond/FusedBatchNorm_1:0,InceptionResnetV1/Repeat/block35_5/Branch_1/Conv2d_0b_3x3/BatchNorm/cond/Merge:0,InceptionResnetV1/Repeat/block35_5/Branch_1/Conv2d_0b_3x3/BatchNorm/cond_1/Merge:0,InceptionResnetV1/Repeat/block35_5/Branch_1/Conv2d_0b_3x3/BatchNorm/cond_1/Switch_1:0" precision="FP16">
					<dim>1</dim>
					<dim>32</dim>
					<dim>17</dim>
					<dim>17</dim>
				</port>
			</output>
		</layer>
		<layer id="198" name="InceptionResnetV1/Repeat/block35_5/Branch_1/Conv2d_0b_3x3/Relu" type="ReLU" version="opset1">
			<input>
				<port id="0" precision="FP16">
					<dim>1</dim>
					<dim>32</dim>
					<dim>17</dim>
					<dim>17</dim>
				</port>
			</input>
			<output>
				<port id="1" names="InceptionResnetV1/Repeat/block35_5/Branch_1/Conv2d_0b_3x3/Relu:0" precision="FP16">
					<dim>1</dim>
					<dim>32</dim>
					<dim>17</dim>
					<dim>17</dim>
				</port>
			</output>
		</layer>
		<layer id="199" name="InceptionResnetV1/Repeat/block35_5/Branch_2/Conv2d_0a_1x1/BatchNorm/cond/FusedBatchNorm_1/mean/Fused_Mul__copy" type="Const" version="opset1">
			<data element_type="f16" offset="1899176" shape="32, 256, 1, 1" size="16384"/>
			<output>
				<port id="0" names="InceptionResnetV1/Repeat/block35_5/Branch_2/Conv2d_0a_1x1/weights/read:0" precision="FP16">
					<dim>32</dim>
					<dim>256</dim>
					<dim>1</dim>
					<dim>1</dim>
				</port>
			</output>
		</layer>
		<layer id="200" name="InceptionResnetV1/Repeat/block35_5/Branch_2/Conv2d_0a_1x1/Conv2D" type="Convolution" version="opset1">
			<data auto_pad="same_upper" dilations="1, 1" pads_begin="0, 0" pads_end="0, 0" strides="1, 1"/>
			<input>
				<port id="0" precision="FP16">
					<dim>1</dim>
					<dim>256</dim>
					<dim>17</dim>
					<dim>17</dim>
				</port>
				<port id="1" precision="FP16">
					<dim>32</dim>
					<dim>256</dim>
					<dim>1</dim>
					<dim>1</dim>
				</port>
			</input>
			<output>
				<port id="2" precision="FP16">
					<dim>1</dim>
					<dim>32</dim>
					<dim>17</dim>
					<dim>17</dim>
				</port>
			</output>
		</layer>
		<layer id="201" name="data_add_3517835183" type="Const" version="opset1">
			<data element_type="f16" offset="1915560" shape="1, 32, 1, 1" size="64"/>
			<output>
				<port id="0" precision="FP16">
					<dim>1</dim>
					<dim>32</dim>
					<dim>1</dim>
					<dim>1</dim>
				</port>
			</output>
		</layer>
		<layer id="202" name="InceptionResnetV1/Repeat/block35_5/Branch_2/Conv2d_0a_1x1/BatchNorm/cond/FusedBatchNorm_1/variance/Fused_Add_" type="Add" version="opset1">
			<data auto_broadcast="numpy"/>
			<input>
				<port id="0" precision="FP16">
					<dim>1</dim>
					<dim>32</dim>
					<dim>17</dim>
					<dim>17</dim>
				</port>
				<port id="1" precision="FP16">
					<dim>1</dim>
					<dim>32</dim>
					<dim>1</dim>
					<dim>1</dim>
				</port>
			</input>
			<output>
				<port id="2" names="InceptionResnetV1/Repeat/block35_5/Branch_2/Conv2d_0a_1x1/BatchNorm/cond/FusedBatchNorm_1:0,InceptionResnetV1/Repeat/block35_5/Branch_2/Conv2d_0a_1x1/BatchNorm/cond/Merge:0,InceptionResnetV1/Repeat/block35_5/Branch_2/Conv2d_0a_1x1/BatchNorm/cond_1/Merge:0,InceptionResnetV1/Repeat/block35_5/Branch_2/Conv2d_0a_1x1/BatchNorm/cond_1/Switch_1:0" precision="FP16">
					<dim>1</dim>
					<dim>32</dim>
					<dim>17</dim>
					<dim>17</dim>
				</port>
			</output>
		</layer>
		<layer id="203" name="InceptionResnetV1/Repeat/block35_5/Branch_2/Conv2d_0a_1x1/Relu" type="ReLU" version="opset1">
			<input>
				<port id="0" precision="FP16">
					<dim>1</dim>
					<dim>32</dim>
					<dim>17</dim>
					<dim>17</dim>
				</port>
			</input>
			<output>
				<port id="1" names="InceptionResnetV1/Repeat/block35_5/Branch_2/Conv2d_0a_1x1/Relu:0" precision="FP16">
					<dim>1</dim>
					<dim>32</dim>
					<dim>17</dim>
					<dim>17</dim>
				</port>
			</output>
		</layer>
		<layer id="204" name="InceptionResnetV1/Repeat/block35_5/Branch_2/Conv2d_0b_3x3/BatchNorm/cond/FusedBatchNorm_1/mean/Fused_Mul__copy" type="Const" version="opset1">
			<data element_type="f16" offset="1915624" shape="32, 32, 3, 3" size="18432"/>
			<output>
				<port id="0" names="InceptionResnetV1/Repeat/block35_5/Branch_2/Conv2d_0b_3x3/weights/read:0" precision="FP16">
					<dim>32</dim>
					<dim>32</dim>
					<dim>3</dim>
					<dim>3</dim>
				</port>
			</output>
		</layer>
		<layer id="205" name="InceptionResnetV1/Repeat/block35_5/Branch_2/Conv2d_0b_3x3/Conv2D" type="Convolution" version="opset1">
			<data auto_pad="same_upper" dilations="1, 1" pads_begin="1, 1" pads_end="1, 1" strides="1, 1"/>
			<input>
				<port id="0" precision="FP16">
					<dim>1</dim>
					<dim>32</dim>
					<dim>17</dim>
					<dim>17</dim>
				</port>
				<port id="1" precision="FP16">
					<dim>32</dim>
					<dim>32</dim>
					<dim>3</dim>
					<dim>3</dim>
				</port>
			</input>
			<output>
				<port id="2" precision="FP16">
					<dim>1</dim>
					<dim>32</dim>
					<dim>17</dim>
					<dim>17</dim>
				</port>
			</output>
		</layer>
		<layer id="206" name="data_add_3518635191" type="Const" version="opset1">
			<data element_type="f16" offset="1934056" shape="1, 32, 1, 1" size="64"/>
			<output>
				<port id="0" precision="FP16">
					<dim>1</dim>
					<dim>32</dim>
					<dim>1</dim>
					<dim>1</dim>
				</port>
			</output>
		</layer>
		<layer id="207" name="InceptionResnetV1/Repeat/block35_5/Branch_2/Conv2d_0b_3x3/BatchNorm/cond/FusedBatchNorm_1/variance/Fused_Add_" type="Add" version="opset1">
			<data auto_broadcast="numpy"/>
			<input>
				<port id="0" precision="FP16">
					<dim>1</dim>
					<dim>32</dim>
					<dim>17</dim>
					<dim>17</dim>
				</port>
				<port id="1" precision="FP16">
					<dim>1</dim>
					<dim>32</dim>
					<dim>1</dim>
					<dim>1</dim>
				</port>
			</input>
			<output>
				<port id="2" names="InceptionResnetV1/Repeat/block35_5/Branch_2/Conv2d_0b_3x3/BatchNorm/cond/FusedBatchNorm_1:0,InceptionResnetV1/Repeat/block35_5/Branch_2/Conv2d_0b_3x3/BatchNorm/cond/Merge:0,InceptionResnetV1/Repeat/block35_5/Branch_2/Conv2d_0b_3x3/BatchNorm/cond_1/Merge:0,InceptionResnetV1/Repeat/block35_5/Branch_2/Conv2d_0b_3x3/BatchNorm/cond_1/Switch_1:0" precision="FP16">
					<dim>1</dim>
					<dim>32</dim>
					<dim>17</dim>
					<dim>17</dim>
				</port>
			</output>
		</layer>
		<layer id="208" name="InceptionResnetV1/Repeat/block35_5/Branch_2/Conv2d_0b_3x3/Relu" type="ReLU" version="opset1">
			<input>
				<port id="0" precision="FP16">
					<dim>1</dim>
					<dim>32</dim>
					<dim>17</dim>
					<dim>17</dim>
				</port>
			</input>
			<output>
				<port id="1" names="InceptionResnetV1/Repeat/block35_5/Branch_2/Conv2d_0b_3x3/Relu:0" precision="FP16">
					<dim>1</dim>
					<dim>32</dim>
					<dim>17</dim>
					<dim>17</dim>
				</port>
			</output>
		</layer>
		<layer id="209" name="InceptionResnetV1/Repeat/block35_5/Branch_2/Conv2d_0c_3x3/BatchNorm/cond/FusedBatchNorm_1/mean/Fused_Mul__copy" type="Const" version="opset1">
			<data element_type="f16" offset="1934120" shape="32, 32, 3, 3" size="18432"/>
			<output>
				<port id="0" names="InceptionResnetV1/Repeat/block35_5/Branch_2/Conv2d_0c_3x3/weights/read:0" precision="FP16">
					<dim>32</dim>
					<dim>32</dim>
					<dim>3</dim>
					<dim>3</dim>
				</port>
			</output>
		</layer>
		<layer id="210" name="InceptionResnetV1/Repeat/block35_5/Branch_2/Conv2d_0c_3x3/Conv2D" type="Convolution" version="opset1">
			<data auto_pad="same_upper" dilations="1, 1" pads_begin="1, 1" pads_end="1, 1" strides="1, 1"/>
			<input>
				<port id="0" precision="FP16">
					<dim>1</dim>
					<dim>32</dim>
					<dim>17</dim>
					<dim>17</dim>
				</port>
				<port id="1" precision="FP16">
					<dim>32</dim>
					<dim>32</dim>
					<dim>3</dim>
					<dim>3</dim>
				</port>
			</input>
			<output>
				<port id="2" precision="FP16">
					<dim>1</dim>
					<dim>32</dim>
					<dim>17</dim>
					<dim>17</dim>
				</port>
			</output>
		</layer>
		<layer id="211" name="data_add_3519435199" type="Const" version="opset1">
			<data element_type="f16" offset="1952552" shape="1, 32, 1, 1" size="64"/>
			<output>
				<port id="0" precision="FP16">
					<dim>1</dim>
					<dim>32</dim>
					<dim>1</dim>
					<dim>1</dim>
				</port>
			</output>
		</layer>
		<layer id="212" name="InceptionResnetV1/Repeat/block35_5/Branch_2/Conv2d_0c_3x3/BatchNorm/cond/FusedBatchNorm_1/variance/Fused_Add_" type="Add" version="opset1">
			<data auto_broadcast="numpy"/>
			<input>
				<port id="0" precision="FP16">
					<dim>1</dim>
					<dim>32</dim>
					<dim>17</dim>
					<dim>17</dim>
				</port>
				<port id="1" precision="FP16">
					<dim>1</dim>
					<dim>32</dim>
					<dim>1</dim>
					<dim>1</dim>
				</port>
			</input>
			<output>
				<port id="2" names="InceptionResnetV1/Repeat/block35_5/Branch_2/Conv2d_0c_3x3/BatchNorm/cond/FusedBatchNorm_1:0,InceptionResnetV1/Repeat/block35_5/Branch_2/Conv2d_0c_3x3/BatchNorm/cond/Merge:0,InceptionResnetV1/Repeat/block35_5/Branch_2/Conv2d_0c_3x3/BatchNorm/cond_1/Merge:0,InceptionResnetV1/Repeat/block35_5/Branch_2/Conv2d_0c_3x3/BatchNorm/cond_1/Switch_1:0" precision="FP16">
					<dim>1</dim>
					<dim>32</dim>
					<dim>17</dim>
					<dim>17</dim>
				</port>
			</output>
		</layer>
		<layer id="213" name="InceptionResnetV1/Repeat/block35_5/Branch_2/Conv2d_0c_3x3/Relu" type="ReLU" version="opset1">
			<input>
				<port id="0" precision="FP16">
					<dim>1</dim>
					<dim>32</dim>
					<dim>17</dim>
					<dim>17</dim>
				</port>
			</input>
			<output>
				<port id="1" names="InceptionResnetV1/Repeat/block35_5/Branch_2/Conv2d_0c_3x3/Relu:0" precision="FP16">
					<dim>1</dim>
					<dim>32</dim>
					<dim>17</dim>
					<dim>17</dim>
				</port>
			</output>
		</layer>
		<layer id="214" name="InceptionResnetV1/Repeat/block35_5/concat" type="Concat" version="opset1">
			<data axis="1"/>
			<input>
				<port id="0" precision="FP16">
					<dim>1</dim>
					<dim>32</dim>
					<dim>17</dim>
					<dim>17</dim>
				</port>
				<port id="1" precision="FP16">
					<dim>1</dim>
					<dim>32</dim>
					<dim>17</dim>
					<dim>17</dim>
				</port>
				<port id="2" precision="FP16">
					<dim>1</dim>
					<dim>32</dim>
					<dim>17</dim>
					<dim>17</dim>
				</port>
			</input>
			<output>
				<port id="3" names="InceptionResnetV1/Repeat/block35_5/concat:0" precision="FP16">
					<dim>1</dim>
					<dim>96</dim>
					<dim>17</dim>
					<dim>17</dim>
				</port>
			</output>
		</layer>
		<layer id="215" name="InceptionResnetV1/Repeat/block35_5/mul/Fused_Mul__copy" type="Const" version="opset1">
			<data element_type="f16" offset="1952616" shape="256, 96, 1, 1" size="49152"/>
			<output>
				<port id="0" names="InceptionResnetV1/Repeat/block35_5/Conv2d_1x1/weights/read:0" precision="FP16">
					<dim>256</dim>
					<dim>96</dim>
					<dim>1</dim>
					<dim>1</dim>
				</port>
			</output>
		</layer>
		<layer id="216" name="InceptionResnetV1/Repeat/block35_5/Conv2d_1x1/Conv2D" type="Convolution" version="opset1">
			<data auto_pad="same_upper" dilations="1, 1" pads_begin="0, 0" pads_end="0, 0" strides="1, 1"/>
			<input>
				<port id="0" precision="FP16">
					<dim>1</dim>
					<dim>96</dim>
					<dim>17</dim>
					<dim>17</dim>
				</port>
				<port id="1" precision="FP16">
					<dim>256</dim>
					<dim>96</dim>
					<dim>1</dim>
					<dim>1</dim>
				</port>
			</input>
			<output>
				<port id="2" precision="FP16">
					<dim>1</dim>
					<dim>256</dim>
					<dim>17</dim>
					<dim>17</dim>
				</port>
			</output>
		</layer>
		<layer id="217" name="data_add_3522635231" type="Const" version="opset1">
			<data element_type="f16" offset="2001768" shape="1, 256, 1, 1" size="512"/>
			<output>
				<port id="0" precision="FP16">
					<dim>1</dim>
					<dim>256</dim>
					<dim>1</dim>
					<dim>1</dim>
				</port>
			</output>
		</layer>
		<layer id="218" name="InceptionResnetV1/Repeat/block35_5/Conv2d_1x1/BiasAdd/Add/Fused_Add_" type="Add" version="opset1">
			<data auto_broadcast="numpy"/>
			<input>
				<port id="0" precision="FP16">
					<dim>1</dim>
					<dim>256</dim>
					<dim>17</dim>
					<dim>17</dim>
				</port>
				<port id="1" precision="FP16">
					<dim>1</dim>
					<dim>256</dim>
					<dim>1</dim>
					<dim>1</dim>
				</port>
			</input>
			<output>
				<port id="2" names="InceptionResnetV1/Repeat/block35_5/mul:0" precision="FP16">
					<dim>1</dim>
					<dim>256</dim>
					<dim>17</dim>
					<dim>17</dim>
				</port>
			</output>
		</layer>
		<layer id="219" name="InceptionResnetV1/Repeat/block35_5/add" type="Add" version="opset1">
			<data auto_broadcast="numpy"/>
			<input>
				<port id="0" precision="FP16">
					<dim>1</dim>
					<dim>256</dim>
					<dim>17</dim>
					<dim>17</dim>
				</port>
				<port id="1" precision="FP16">
					<dim>1</dim>
					<dim>256</dim>
					<dim>17</dim>
					<dim>17</dim>
				</port>
			</input>
			<output>
				<port id="2" names="InceptionResnetV1/Repeat/block35_5/add:0" precision="FP16">
					<dim>1</dim>
					<dim>256</dim>
					<dim>17</dim>
					<dim>17</dim>
				</port>
			</output>
		</layer>
		<layer id="220" name="InceptionResnetV1/Repeat/block35_5/Relu" type="ReLU" version="opset1">
			<input>
				<port id="0" precision="FP16">
					<dim>1</dim>
					<dim>256</dim>
					<dim>17</dim>
					<dim>17</dim>
				</port>
			</input>
			<output>
				<port id="1" names="InceptionResnetV1/Repeat/block35_5/Relu:0" precision="FP16">
					<dim>1</dim>
					<dim>256</dim>
					<dim>17</dim>
					<dim>17</dim>
				</port>
			</output>
		</layer>
		<layer id="221" name="InceptionResnetV1/Mixed_6a/Branch_0/Conv2d_1a_3x3/BatchNorm/cond/FusedBatchNorm_1/mean/Fused_Mul__copy" type="Const" version="opset1">
			<data element_type="f16" offset="2002280" shape="384, 256, 3, 3" size="1769472"/>
			<output>
				<port id="0" names="InceptionResnetV1/Mixed_6a/Branch_0/Conv2d_1a_3x3/weights/read:0" precision="FP16">
					<dim>384</dim>
					<dim>256</dim>
					<dim>3</dim>
					<dim>3</dim>
				</port>
			</output>
		</layer>
		<layer id="222" name="InceptionResnetV1/Mixed_6a/Branch_0/Conv2d_1a_3x3/Conv2D" type="Convolution" version="opset1">
			<data auto_pad="valid" dilations="1, 1" pads_begin="0, 0" pads_end="0, 0" strides="2, 2"/>
			<input>
				<port id="0" precision="FP16">
					<dim>1</dim>
					<dim>256</dim>
					<dim>17</dim>
					<dim>17</dim>
				</port>
				<port id="1" precision="FP16">
					<dim>384</dim>
					<dim>256</dim>
					<dim>3</dim>
					<dim>3</dim>
				</port>
			</input>
			<output>
				<port id="2" precision="FP16">
					<dim>1</dim>
					<dim>384</dim>
					<dim>8</dim>
					<dim>8</dim>
				</port>
			</output>
		</layer>
		<layer id="223" name="data_add_3525835263" type="Const" version="opset1">
			<data element_type="f16" offset="3771752" shape="1, 384, 1, 1" size="768"/>
			<output>
				<port id="0" precision="FP16">
					<dim>1</dim>
					<dim>384</dim>
					<dim>1</dim>
					<dim>1</dim>
				</port>
			</output>
		</layer>
		<layer id="224" name="InceptionResnetV1/Mixed_6a/Branch_0/Conv2d_1a_3x3/BatchNorm/cond/FusedBatchNorm_1/variance/Fused_Add_" type="Add" version="opset1">
			<data auto_broadcast="numpy"/>
			<input>
				<port id="0" precision="FP16">
					<dim>1</dim>
					<dim>384</dim>
					<dim>8</dim>
					<dim>8</dim>
				</port>
				<port id="1" precision="FP16">
					<dim>1</dim>
					<dim>384</dim>
					<dim>1</dim>
					<dim>1</dim>
				</port>
			</input>
			<output>
				<port id="2" names="InceptionResnetV1/Mixed_6a/Branch_0/Conv2d_1a_3x3/BatchNorm/cond/FusedBatchNorm_1:0,InceptionResnetV1/Mixed_6a/Branch_0/Conv2d_1a_3x3/BatchNorm/cond/Merge:0,InceptionResnetV1/Mixed_6a/Branch_0/Conv2d_1a_3x3/BatchNorm/cond_1/Merge:0,InceptionResnetV1/Mixed_6a/Branch_0/Conv2d_1a_3x3/BatchNorm/cond_1/Switch_1:0" precision="FP16">
					<dim>1</dim>
					<dim>384</dim>
					<dim>8</dim>
					<dim>8</dim>
				</port>
			</output>
		</layer>
		<layer id="225" name="InceptionResnetV1/Mixed_6a/Branch_0/Conv2d_1a_3x3/Relu" type="ReLU" version="opset1">
			<input>
				<port id="0" precision="FP16">
					<dim>1</dim>
					<dim>384</dim>
					<dim>8</dim>
					<dim>8</dim>
				</port>
			</input>
			<output>
				<port id="1" names="InceptionResnetV1/Mixed_6a/Branch_0/Conv2d_1a_3x3/Relu:0" precision="FP16">
					<dim>1</dim>
					<dim>384</dim>
					<dim>8</dim>
					<dim>8</dim>
				</port>
			</output>
		</layer>
		<layer id="226" name="InceptionResnetV1/Mixed_6a/Branch_1/Conv2d_0a_1x1/BatchNorm/cond/FusedBatchNorm_1/mean/Fused_Mul__copy" type="Const" version="opset1">
			<data element_type="f16" offset="3772520" shape="192, 256, 1, 1" size="98304"/>
			<output>
				<port id="0" names="InceptionResnetV1/Mixed_6a/Branch_1/Conv2d_0a_1x1/weights/read:0" precision="FP16">
					<dim>192</dim>
					<dim>256</dim>
					<dim>1</dim>
					<dim>1</dim>
				</port>
			</output>
		</layer>
		<layer id="227" name="InceptionResnetV1/Mixed_6a/Branch_1/Conv2d_0a_1x1/Conv2D" type="Convolution" version="opset1">
			<data auto_pad="same_upper" dilations="1, 1" pads_begin="0, 0" pads_end="0, 0" strides="1, 1"/>
			<input>
				<port id="0" precision="FP16">
					<dim>1</dim>
					<dim>256</dim>
					<dim>17</dim>
					<dim>17</dim>
				</port>
				<port id="1" precision="FP16">
					<dim>192</dim>
					<dim>256</dim>
					<dim>1</dim>
					<dim>1</dim>
				</port>
			</input>
			<output>
				<port id="2" precision="FP16">
					<dim>1</dim>
					<dim>192</dim>
					<dim>17</dim>
					<dim>17</dim>
				</port>
			</output>
		</layer>
		<layer id="228" name="data_add_3523435239" type="Const" version="opset1">
			<data element_type="f16" offset="3870824" shape="1, 192, 1, 1" size="384"/>
			<output>
				<port id="0" precision="FP16">
					<dim>1</dim>
					<dim>192</dim>
					<dim>1</dim>
					<dim>1</dim>
				</port>
			</output>
		</layer>
		<layer id="229" name="InceptionResnetV1/Mixed_6a/Branch_1/Conv2d_0a_1x1/BatchNorm/cond/FusedBatchNorm_1/variance/Fused_Add_" type="Add" version="opset1">
			<data auto_broadcast="numpy"/>
			<input>
				<port id="0" precision="FP16">
					<dim>1</dim>
					<dim>192</dim>
					<dim>17</dim>
					<dim>17</dim>
				</port>
				<port id="1" precision="FP16">
					<dim>1</dim>
					<dim>192</dim>
					<dim>1</dim>
					<dim>1</dim>
				</port>
			</input>
			<output>
				<port id="2" names="InceptionResnetV1/Mixed_6a/Branch_1/Conv2d_0a_1x1/BatchNorm/cond/FusedBatchNorm_1:0,InceptionResnetV1/Mixed_6a/Branch_1/Conv2d_0a_1x1/BatchNorm/cond/Merge:0,InceptionResnetV1/Mixed_6a/Branch_1/Conv2d_0a_1x1/BatchNorm/cond_1/Merge:0,InceptionResnetV1/Mixed_6a/Branch_1/Conv2d_0a_1x1/BatchNorm/cond_1/Switch_1:0" precision="FP16">
					<dim>1</dim>
					<dim>192</dim>
					<dim>17</dim>
					<dim>17</dim>
				</port>
			</output>
		</layer>
		<layer id="230" name="InceptionResnetV1/Mixed_6a/Branch_1/Conv2d_0a_1x1/Relu" type="ReLU" version="opset1">
			<input>
				<port id="0" precision="FP16">
					<dim>1</dim>
					<dim>192</dim>
					<dim>17</dim>
					<dim>17</dim>
				</port>
			</input>
			<output>
				<port id="1" names="InceptionResnetV1/Mixed_6a/Branch_1/Conv2d_0a_1x1/Relu:0" precision="FP16">
					<dim>1</dim>
					<dim>192</dim>
					<dim>17</dim>
					<dim>17</dim>
				</port>
			</output>
		</layer>
		<layer id="231" name="InceptionResnetV1/Mixed_6a/Branch_1/Conv2d_0b_3x3/BatchNorm/cond/FusedBatchNorm_1/mean/Fused_Mul__copy" type="Const" version="opset1">
			<data element_type="f16" offset="3871208" shape="192, 192, 3, 3" size="663552"/>
			<output>
				<port id="0" names="InceptionResnetV1/Mixed_6a/Branch_1/Conv2d_0b_3x3/weights/read:0" precision="FP16">
					<dim>192</dim>
					<dim>192</dim>
					<dim>3</dim>
					<dim>3</dim>
				</port>
			</output>
		</layer>
		<layer id="232" name="InceptionResnetV1/Mixed_6a/Branch_1/Conv2d_0b_3x3/Conv2D" type="Convolution" version="opset1">
			<data auto_pad="same_upper" dilations="1, 1" pads_begin="1, 1" pads_end="1, 1" strides="1, 1"/>
			<input>
				<port id="0" precision="FP16">
					<dim>1</dim>
					<dim>192</dim>
					<dim>17</dim>
					<dim>17</dim>
				</port>
				<port id="1" precision="FP16">
					<dim>192</dim>
					<dim>192</dim>
					<dim>3</dim>
					<dim>3</dim>
				</port>
			</input>
			<output>
				<port id="2" precision="FP16">
					<dim>1</dim>
					<dim>192</dim>
					<dim>17</dim>
					<dim>17</dim>
				</port>
			</output>
		</layer>
		<layer id="233" name="data_add_3524235247" type="Const" version="opset1">
			<data element_type="f16" offset="4534760" shape="1, 192, 1, 1" size="384"/>
			<output>
				<port id="0" precision="FP16">
					<dim>1</dim>
					<dim>192</dim>
					<dim>1</dim>
					<dim>1</dim>
				</port>
			</output>
		</layer>
		<layer id="234" name="InceptionResnetV1/Mixed_6a/Branch_1/Conv2d_0b_3x3/BatchNorm/cond/FusedBatchNorm_1/variance/Fused_Add_" type="Add" version="opset1">
			<data auto_broadcast="numpy"/>
			<input>
				<port id="0" precision="FP16">
					<dim>1</dim>
					<dim>192</dim>
					<dim>17</dim>
					<dim>17</dim>
				</port>
				<port id="1" precision="FP16">
					<dim>1</dim>
					<dim>192</dim>
					<dim>1</dim>
					<dim>1</dim>
				</port>
			</input>
			<output>
				<port id="2" names="InceptionResnetV1/Mixed_6a/Branch_1/Conv2d_0b_3x3/BatchNorm/cond/FusedBatchNorm_1:0,InceptionResnetV1/Mixed_6a/Branch_1/Conv2d_0b_3x3/BatchNorm/cond/Merge:0,InceptionResnetV1/Mixed_6a/Branch_1/Conv2d_0b_3x3/BatchNorm/cond_1/Merge:0,InceptionResnetV1/Mixed_6a/Branch_1/Conv2d_0b_3x3/BatchNorm/cond_1/Switch_1:0" precision="FP16">
					<dim>1</dim>
					<dim>192</dim>
					<dim>17</dim>
					<dim>17</dim>
				</port>
			</output>
		</layer>
		<layer id="235" name="InceptionResnetV1/Mixed_6a/Branch_1/Conv2d_0b_3x3/Relu" type="ReLU" version="opset1">
			<input>
				<port id="0" precision="FP16">
					<dim>1</dim>
					<dim>192</dim>
					<dim>17</dim>
					<dim>17</dim>
				</port>
			</input>
			<output>
				<port id="1" names="InceptionResnetV1/Mixed_6a/Branch_1/Conv2d_0b_3x3/Relu:0" precision="FP16">
					<dim>1</dim>
					<dim>192</dim>
					<dim>17</dim>
					<dim>17</dim>
				</port>
			</output>
		</layer>
		<layer id="236" name="InceptionResnetV1/Mixed_6a/Branch_1/Conv2d_1a_3x3/BatchNorm/cond/FusedBatchNorm_1/mean/Fused_Mul__copy" type="Const" version="opset1">
			<data element_type="f16" offset="4535144" shape="256, 192, 3, 3" size="884736"/>
			<output>
				<port id="0" names="InceptionResnetV1/Mixed_6a/Branch_1/Conv2d_1a_3x3/weights/read:0" precision="FP16">
					<dim>256</dim>
					<dim>192</dim>
					<dim>3</dim>
					<dim>3</dim>
				</port>
			</output>
		</layer>
		<layer id="237" name="InceptionResnetV1/Mixed_6a/Branch_1/Conv2d_1a_3x3/Conv2D" type="Convolution" version="opset1">
			<data auto_pad="valid" dilations="1, 1" pads_begin="0, 0" pads_end="0, 0" strides="2, 2"/>
			<input>
				<port id="0" precision="FP16">
					<dim>1</dim>
					<dim>192</dim>
					<dim>17</dim>
					<dim>17</dim>
				</port>
				<port id="1" precision="FP16">
					<dim>256</dim>
					<dim>192</dim>
					<dim>3</dim>
					<dim>3</dim>
				</port>
			</input>
			<output>
				<port id="2" precision="FP16">
					<dim>1</dim>
					<dim>256</dim>
					<dim>8</dim>
					<dim>8</dim>
				</port>
			</output>
		</layer>
		<layer id="238" name="data_add_3525035255" type="Const" version="opset1">
			<data element_type="f16" offset="5419880" shape="1, 256, 1, 1" size="512"/>
			<output>
				<port id="0" precision="FP16">
					<dim>1</dim>
					<dim>256</dim>
					<dim>1</dim>
					<dim>1</dim>
				</port>
			</output>
		</layer>
		<layer id="239" name="InceptionResnetV1/Mixed_6a/Branch_1/Conv2d_1a_3x3/BatchNorm/cond/FusedBatchNorm_1/variance/Fused_Add_" type="Add" version="opset1">
			<data auto_broadcast="numpy"/>
			<input>
				<port id="0" precision="FP16">
					<dim>1</dim>
					<dim>256</dim>
					<dim>8</dim>
					<dim>8</dim>
				</port>
				<port id="1" precision="FP16">
					<dim>1</dim>
					<dim>256</dim>
					<dim>1</dim>
					<dim>1</dim>
				</port>
			</input>
			<output>
				<port id="2" names="InceptionResnetV1/Mixed_6a/Branch_1/Conv2d_1a_3x3/BatchNorm/cond/FusedBatchNorm_1:0,InceptionResnetV1/Mixed_6a/Branch_1/Conv2d_1a_3x3/BatchNorm/cond/Merge:0,InceptionResnetV1/Mixed_6a/Branch_1/Conv2d_1a_3x3/BatchNorm/cond_1/Merge:0,InceptionResnetV1/Mixed_6a/Branch_1/Conv2d_1a_3x3/BatchNorm/cond_1/Switch_1:0" precision="FP16">
					<dim>1</dim>
					<dim>256</dim>
					<dim>8</dim>
					<dim>8</dim>
				</port>
			</output>
		</layer>
		<layer id="240" name="InceptionResnetV1/Mixed_6a/Branch_1/Conv2d_1a_3x3/Relu" type="ReLU" version="opset1">
			<input>
				<port id="0" precision="FP16">
					<dim>1</dim>
					<dim>256</dim>
					<dim>8</dim>
					<dim>8</dim>
				</port>
			</input>
			<output>
				<port id="1" names="InceptionResnetV1/Mixed_6a/Branch_1/Conv2d_1a_3x3/Relu:0" precision="FP16">
					<dim>1</dim>
					<dim>256</dim>
					<dim>8</dim>
					<dim>8</dim>
				</port>
			</output>
		</layer>
		<layer id="241" name="InceptionResnetV1/Mixed_6a/Branch_2/MaxPool_1a_3x3/MaxPool" type="MaxPool" version="opset1">
			<data auto_pad="valid" kernel="3, 3" pads_begin="0, 0" pads_end="0, 0" rounding_type="floor" strides="2, 2"/>
			<input>
				<port id="0" precision="FP16">
					<dim>1</dim>
					<dim>256</dim>
					<dim>17</dim>
					<dim>17</dim>
				</port>
			</input>
			<output>
				<port id="1" names="InceptionResnetV1/Mixed_6a/Branch_2/MaxPool_1a_3x3/MaxPool:0" precision="FP16">
					<dim>1</dim>
					<dim>256</dim>
					<dim>8</dim>
					<dim>8</dim>
				</port>
			</output>
		</layer>
		<layer id="242" name="InceptionResnetV1/Mixed_6a/concat" type="Concat" version="opset1">
			<data axis="1"/>
			<input>
				<port id="0" precision="FP16">
					<dim>1</dim>
					<dim>384</dim>
					<dim>8</dim>
					<dim>8</dim>
				</port>
				<port id="1" precision="FP16">
					<dim>1</dim>
					<dim>256</dim>
					<dim>8</dim>
					<dim>8</dim>
				</port>
				<port id="2" precision="FP16">
					<dim>1</dim>
					<dim>256</dim>
					<dim>8</dim>
					<dim>8</dim>
				</port>
			</input>
			<output>
				<port id="3" names="InceptionResnetV1/Mixed_6a/concat:0" precision="FP16">
					<dim>1</dim>
					<dim>896</dim>
					<dim>8</dim>
					<dim>8</dim>
				</port>
			</output>
		</layer>
		<layer id="243" name="InceptionResnetV1/Repeat_1/block17_1/Branch_0/Conv2d_1x1/BatchNorm/cond/FusedBatchNorm_1/mean/Fused_Mul__copy" type="Const" version="opset1">
			<data element_type="f16" offset="5420392" shape="128, 896, 1, 1" size="229376"/>
			<output>
				<port id="0" names="InceptionResnetV1/Repeat_1/block17_1/Branch_0/Conv2d_1x1/weights/read:0" precision="FP16">
					<dim>128</dim>
					<dim>896</dim>
					<dim>1</dim>
					<dim>1</dim>
				</port>
			</output>
		</layer>
		<layer id="244" name="InceptionResnetV1/Repeat_1/block17_1/Branch_0/Conv2d_1x1/Conv2D" type="Convolution" version="opset1">
			<data auto_pad="same_upper" dilations="1, 1" pads_begin="0, 0" pads_end="0, 0" strides="1, 1"/>
			<input>
				<port id="0" precision="FP16">
					<dim>1</dim>
					<dim>896</dim>
					<dim>8</dim>
					<dim>8</dim>
				</port>
				<port id="1" precision="FP16">
					<dim>128</dim>
					<dim>896</dim>
					<dim>1</dim>
					<dim>1</dim>
				</port>
			</input>
			<output>
				<port id="2" precision="FP16">
					<dim>1</dim>
					<dim>128</dim>
					<dim>8</dim>
					<dim>8</dim>
				</port>
			</output>
		</layer>
		<layer id="245" name="data_add_3529035295" type="Const" version="opset1">
			<data element_type="f16" offset="5649768" shape="1, 128, 1, 1" size="256"/>
			<output>
				<port id="0" precision="FP16">
					<dim>1</dim>
					<dim>128</dim>
					<dim>1</dim>
					<dim>1</dim>
				</port>
			</output>
		</layer>
		<layer id="246" name="InceptionResnetV1/Repeat_1/block17_1/Branch_0/Conv2d_1x1/BatchNorm/cond/FusedBatchNorm_1/variance/Fused_Add_" type="Add" version="opset1">
			<data auto_broadcast="numpy"/>
			<input>
				<port id="0" precision="FP16">
					<dim>1</dim>
					<dim>128</dim>
					<dim>8</dim>
					<dim>8</dim>
				</port>
				<port id="1" precision="FP16">
					<dim>1</dim>
					<dim>128</dim>
					<dim>1</dim>
					<dim>1</dim>
				</port>
			</input>
			<output>
				<port id="2" names="InceptionResnetV1/Repeat_1/block17_1/Branch_0/Conv2d_1x1/BatchNorm/cond/FusedBatchNorm_1:0,InceptionResnetV1/Repeat_1/block17_1/Branch_0/Conv2d_1x1/BatchNorm/cond/Merge:0,InceptionResnetV1/Repeat_1/block17_1/Branch_0/Conv2d_1x1/BatchNorm/cond_1/Merge:0,InceptionResnetV1/Repeat_1/block17_1/Branch_0/Conv2d_1x1/BatchNorm/cond_1/Switch_1:0" precision="FP16">
					<dim>1</dim>
					<dim>128</dim>
					<dim>8</dim>
					<dim>8</dim>
				</port>
			</output>
		</layer>
		<layer id="247" name="InceptionResnetV1/Repeat_1/block17_1/Branch_0/Conv2d_1x1/Relu" type="ReLU" version="opset1">
			<input>
				<port id="0" precision="FP16">
					<dim>1</dim>
					<dim>128</dim>
					<dim>8</dim>
					<dim>8</dim>
				</port>
			</input>
			<output>
				<port id="1" names="InceptionResnetV1/Repeat_1/block17_1/Branch_0/Conv2d_1x1/Relu:0" precision="FP16">
					<dim>1</dim>
					<dim>128</dim>
					<dim>8</dim>
					<dim>8</dim>
				</port>
			</output>
		</layer>
		<layer id="248" name="InceptionResnetV1/Repeat_1/block17_1/Branch_1/Conv2d_0a_1x1/BatchNorm/cond/FusedBatchNorm_1/mean/Fused_Mul__copy" type="Const" version="opset1">
			<data element_type="f16" offset="5650024" shape="128, 896, 1, 1" size="229376"/>
			<output>
				<port id="0" names="InceptionResnetV1/Repeat_1/block17_1/Branch_1/Conv2d_0a_1x1/weights/read:0" precision="FP16">
					<dim>128</dim>
					<dim>896</dim>
					<dim>1</dim>
					<dim>1</dim>
				</port>
			</output>
		</layer>
		<layer id="249" name="InceptionResnetV1/Repeat_1/block17_1/Branch_1/Conv2d_0a_1x1/Conv2D" type="Convolution" version="opset1">
			<data auto_pad="same_upper" dilations="1, 1" pads_begin="0, 0" pads_end="0, 0" strides="1, 1"/>
			<input>
				<port id="0" precision="FP16">
					<dim>1</dim>
					<dim>896</dim>
					<dim>8</dim>
					<dim>8</dim>
				</port>
				<port id="1" precision="FP16">
					<dim>128</dim>
					<dim>896</dim>
					<dim>1</dim>
					<dim>1</dim>
				</port>
			</input>
			<output>
				<port id="2" precision="FP16">
					<dim>1</dim>
					<dim>128</dim>
					<dim>8</dim>
					<dim>8</dim>
				</port>
			</output>
		</layer>
		<layer id="250" name="data_add_3526635271" type="Const" version="opset1">
			<data element_type="f16" offset="5879400" shape="1, 128, 1, 1" size="256"/>
			<output>
				<port id="0" precision="FP16">
					<dim>1</dim>
					<dim>128</dim>
					<dim>1</dim>
					<dim>1</dim>
				</port>
			</output>
		</layer>
		<layer id="251" name="InceptionResnetV1/Repeat_1/block17_1/Branch_1/Conv2d_0a_1x1/BatchNorm/cond/FusedBatchNorm_1/variance/Fused_Add_" type="Add" version="opset1">
			<data auto_broadcast="numpy"/>
			<input>
				<port id="0" precision="FP16">
					<dim>1</dim>
					<dim>128</dim>
					<dim>8</dim>
					<dim>8</dim>
				</port>
				<port id="1" precision="FP16">
					<dim>1</dim>
					<dim>128</dim>
					<dim>1</dim>
					<dim>1</dim>
				</port>
			</input>
			<output>
				<port id="2" names="InceptionResnetV1/Repeat_1/block17_1/Branch_1/Conv2d_0a_1x1/BatchNorm/cond/FusedBatchNorm_1:0,InceptionResnetV1/Repeat_1/block17_1/Branch_1/Conv2d_0a_1x1/BatchNorm/cond/Merge:0,InceptionResnetV1/Repeat_1/block17_1/Branch_1/Conv2d_0a_1x1/BatchNorm/cond_1/Merge:0,InceptionResnetV1/Repeat_1/block17_1/Branch_1/Conv2d_0a_1x1/BatchNorm/cond_1/Switch_1:0" precision="FP16">
					<dim>1</dim>
					<dim>128</dim>
					<dim>8</dim>
					<dim>8</dim>
				</port>
			</output>
		</layer>
		<layer id="252" name="InceptionResnetV1/Repeat_1/block17_1/Branch_1/Conv2d_0a_1x1/Relu" type="ReLU" version="opset1">
			<input>
				<port id="0" precision="FP16">
					<dim>1</dim>
					<dim>128</dim>
					<dim>8</dim>
					<dim>8</dim>
				</port>
			</input>
			<output>
				<port id="1" names="InceptionResnetV1/Repeat_1/block17_1/Branch_1/Conv2d_0a_1x1/Relu:0" precision="FP16">
					<dim>1</dim>
					<dim>128</dim>
					<dim>8</dim>
					<dim>8</dim>
				</port>
			</output>
		</layer>
		<layer id="253" name="InceptionResnetV1/Repeat_1/block17_1/Branch_1/Conv2d_0b_1x7/BatchNorm/cond/FusedBatchNorm_1/mean/Fused_Mul__copy" type="Const" version="opset1">
			<data element_type="f16" offset="5879656" shape="128, 128, 1, 7" size="229376"/>
			<output>
				<port id="0" names="InceptionResnetV1/Repeat_1/block17_1/Branch_1/Conv2d_0b_1x7/weights/read:0" precision="FP16">
					<dim>128</dim>
					<dim>128</dim>
					<dim>1</dim>
					<dim>7</dim>
				</port>
			</output>
		</layer>
		<layer id="254" name="InceptionResnetV1/Repeat_1/block17_1/Branch_1/Conv2d_0b_1x7/Conv2D" type="Convolution" version="opset1">
			<data auto_pad="same_upper" dilations="1, 1" pads_begin="0, 3" pads_end="0, 3" strides="1, 1"/>
			<input>
				<port id="0" precision="FP16">
					<dim>1</dim>
					<dim>128</dim>
					<dim>8</dim>
					<dim>8</dim>
				</port>
				<port id="1" precision="FP16">
					<dim>128</dim>
					<dim>128</dim>
					<dim>1</dim>
					<dim>7</dim>
				</port>
			</input>
			<output>
				<port id="2" precision="FP16">
					<dim>1</dim>
					<dim>128</dim>
					<dim>8</dim>
					<dim>8</dim>
				</port>
			</output>
		</layer>
		<layer id="255" name="data_add_3527435279" type="Const" version="opset1">
			<data element_type="f16" offset="6109032" shape="1, 128, 1, 1" size="256"/>
			<output>
				<port id="0" precision="FP16">
					<dim>1</dim>
					<dim>128</dim>
					<dim>1</dim>
					<dim>1</dim>
				</port>
			</output>
		</layer>
		<layer id="256" name="InceptionResnetV1/Repeat_1/block17_1/Branch_1/Conv2d_0b_1x7/BatchNorm/cond/FusedBatchNorm_1/variance/Fused_Add_" type="Add" version="opset1">
			<data auto_broadcast="numpy"/>
			<input>
				<port id="0" precision="FP16">
					<dim>1</dim>
					<dim>128</dim>
					<dim>8</dim>
					<dim>8</dim>
				</port>
				<port id="1" precision="FP16">
					<dim>1</dim>
					<dim>128</dim>
					<dim>1</dim>
					<dim>1</dim>
				</port>
			</input>
			<output>
				<port id="2" names="InceptionResnetV1/Repeat_1/block17_1/Branch_1/Conv2d_0b_1x7/BatchNorm/cond/FusedBatchNorm_1:0,InceptionResnetV1/Repeat_1/block17_1/Branch_1/Conv2d_0b_1x7/BatchNorm/cond/Merge:0,InceptionResnetV1/Repeat_1/block17_1/Branch_1/Conv2d_0b_1x7/BatchNorm/cond_1/Merge:0,InceptionResnetV1/Repeat_1/block17_1/Branch_1/Conv2d_0b_1x7/BatchNorm/cond_1/Switch_1:0" precision="FP16">
					<dim>1</dim>
					<dim>128</dim>
					<dim>8</dim>
					<dim>8</dim>
				</port>
			</output>
		</layer>
		<layer id="257" name="InceptionResnetV1/Repeat_1/block17_1/Branch_1/Conv2d_0b_1x7/Relu" type="ReLU" version="opset1">
			<input>
				<port id="0" precision="FP16">
					<dim>1</dim>
					<dim>128</dim>
					<dim>8</dim>
					<dim>8</dim>
				</port>
			</input>
			<output>
				<port id="1" names="InceptionResnetV1/Repeat_1/block17_1/Branch_1/Conv2d_0b_1x7/Relu:0" precision="FP16">
					<dim>1</dim>
					<dim>128</dim>
					<dim>8</dim>
					<dim>8</dim>
				</port>
			</output>
		</layer>
		<layer id="258" name="InceptionResnetV1/Repeat_1/block17_1/Branch_1/Conv2d_0c_7x1/BatchNorm/cond/FusedBatchNorm_1/mean/Fused_Mul__copy" type="Const" version="opset1">
			<data element_type="f16" offset="6109288" shape="128, 128, 7, 1" size="229376"/>
			<output>
				<port id="0" names="InceptionResnetV1/Repeat_1/block17_1/Branch_1/Conv2d_0c_7x1/weights/read:0" precision="FP16">
					<dim>128</dim>
					<dim>128</dim>
					<dim>7</dim>
					<dim>1</dim>
				</port>
			</output>
		</layer>
		<layer id="259" name="InceptionResnetV1/Repeat_1/block17_1/Branch_1/Conv2d_0c_7x1/Conv2D" type="Convolution" version="opset1">
			<data auto_pad="same_upper" dilations="1, 1" pads_begin="3, 0" pads_end="3, 0" strides="1, 1"/>
			<input>
				<port id="0" precision="FP16">
					<dim>1</dim>
					<dim>128</dim>
					<dim>8</dim>
					<dim>8</dim>
				</port>
				<port id="1" precision="FP16">
					<dim>128</dim>
					<dim>128</dim>
					<dim>7</dim>
					<dim>1</dim>
				</port>
			</input>
			<output>
				<port id="2" precision="FP16">
					<dim>1</dim>
					<dim>128</dim>
					<dim>8</dim>
					<dim>8</dim>
				</port>
			</output>
		</layer>
		<layer id="260" name="data_add_3528235287" type="Const" version="opset1">
			<data element_type="f16" offset="6338664" shape="1, 128, 1, 1" size="256"/>
			<output>
				<port id="0" precision="FP16">
					<dim>1</dim>
					<dim>128</dim>
					<dim>1</dim>
					<dim>1</dim>
				</port>
			</output>
		</layer>
		<layer id="261" name="InceptionResnetV1/Repeat_1/block17_1/Branch_1/Conv2d_0c_7x1/BatchNorm/cond/FusedBatchNorm_1/variance/Fused_Add_" type="Add" version="opset1">
			<data auto_broadcast="numpy"/>
			<input>
				<port id="0" precision="FP16">
					<dim>1</dim>
					<dim>128</dim>
					<dim>8</dim>
					<dim>8</dim>
				</port>
				<port id="1" precision="FP16">
					<dim>1</dim>
					<dim>128</dim>
					<dim>1</dim>
					<dim>1</dim>
				</port>
			</input>
			<output>
				<port id="2" names="InceptionResnetV1/Repeat_1/block17_1/Branch_1/Conv2d_0c_7x1/BatchNorm/cond/FusedBatchNorm_1:0,InceptionResnetV1/Repeat_1/block17_1/Branch_1/Conv2d_0c_7x1/BatchNorm/cond/Merge:0,InceptionResnetV1/Repeat_1/block17_1/Branch_1/Conv2d_0c_7x1/BatchNorm/cond_1/Merge:0,InceptionResnetV1/Repeat_1/block17_1/Branch_1/Conv2d_0c_7x1/BatchNorm/cond_1/Switch_1:0" precision="FP16">
					<dim>1</dim>
					<dim>128</dim>
					<dim>8</dim>
					<dim>8</dim>
				</port>
			</output>
		</layer>
		<layer id="262" name="InceptionResnetV1/Repeat_1/block17_1/Branch_1/Conv2d_0c_7x1/Relu" type="ReLU" version="opset1">
			<input>
				<port id="0" precision="FP16">
					<dim>1</dim>
					<dim>128</dim>
					<dim>8</dim>
					<dim>8</dim>
				</port>
			</input>
			<output>
				<port id="1" names="InceptionResnetV1/Repeat_1/block17_1/Branch_1/Conv2d_0c_7x1/Relu:0" precision="FP16">
					<dim>1</dim>
					<dim>128</dim>
					<dim>8</dim>
					<dim>8</dim>
				</port>
			</output>
		</layer>
		<layer id="263" name="InceptionResnetV1/Repeat_1/block17_1/concat" type="Concat" version="opset1">
			<data axis="1"/>
			<input>
				<port id="0" precision="FP16">
					<dim>1</dim>
					<dim>128</dim>
					<dim>8</dim>
					<dim>8</dim>
				</port>
				<port id="1" precision="FP16">
					<dim>1</dim>
					<dim>128</dim>
					<dim>8</dim>
					<dim>8</dim>
				</port>
			</input>
			<output>
				<port id="2" names="InceptionResnetV1/Repeat_1/block17_1/concat:0" precision="FP16">
					<dim>1</dim>
					<dim>256</dim>
					<dim>8</dim>
					<dim>8</dim>
				</port>
			</output>
		</layer>
		<layer id="264" name="InceptionResnetV1/Repeat_1/block17_1/mul/Fused_Mul__copy" type="Const" version="opset1">
			<data element_type="f16" offset="6338920" shape="896, 256, 1, 1" size="458752"/>
			<output>
				<port id="0" names="InceptionResnetV1/Repeat_1/block17_1/Conv2d_1x1/weights/read:0" precision="FP16">
					<dim>896</dim>
					<dim>256</dim>
					<dim>1</dim>
					<dim>1</dim>
				</port>
			</output>
		</layer>
…
		<edge from-layer="78" from-port="0" to-layer="79" to-port="1"/>
		<edge from-layer="79" from-port="2" to-layer="81" to-port="0"/>
		<edge from-layer="80" from-port="0" to-layer="81" to-port="1"/>
		<edge from-layer="81" from-port="2" to-layer="82" to-port="0"/>
		<edge from-layer="82" from-port="1" to-layer="84" to-port="0"/>
		<edge from-layer="83" from-port="0" to-layer="84" to-port="1"/>
		<edge from-layer="84" from-port="2" to-layer="86" to-port="0"/>
		<edge from-layer="85" from-port="0" to-layer="86" to-port="1"/>
		<edge from-layer="86" from-port="2" to-layer="87" to-port="0"/>
		<edge from-layer="87" from-port="1" to-layer="103" to-port="1"/>
		<edge from-layer="88" from-port="0" to-layer="89" to-port="1"/>
		<edge from-layer="89" from-port="2" to-layer="91" to-port="0"/>
		<edge from-layer="90" from-port="0" to-layer="91" to-port="1"/>
		<edge from-layer="91" from-port="2" to-layer="92" to-port="0"/>
		<edge from-layer="92" from-port="1" to-layer="94" to-port="0"/>
		<edge from-layer="93" from-port="0" to-layer="94" to-port="1"/>
		<edge from-layer="94" from-port="2" to-layer="96" to-port="0"/>
		<edge from-layer="95" from-port="0" to-layer="96" to-port="1"/>
		<edge from-layer="96" from-port="2" to-layer="97" to-port="0"/>
		<edge from-layer="97" from-port="1" to-layer="99" to-port="0"/>
		<edge from-layer="98" from-port="0" to-layer="99" to-port="1"/>
		<edge from-layer="99" from-port="2" to-layer="101" to-port="0"/>
		<edge from-layer="100" from-port="0" to-layer="101" to-port="1"/>
		<edge from-layer="101" from-port="2" to-layer="102" to-port="0"/>
		<edge from-layer="102" from-port="1" to-layer="103" to-port="2"/>
		<edge from-layer="103" from-port="3" to-layer="105" to-port="0"/>
		<edge from-layer="104" from-port="0" to-layer="105" to-port="1"/>
		<edge from-layer="105" from-port="2" to-layer="107" to-port="0"/>
		<edge from-layer="106" from-port="0" to-layer="107" to-port="1"/>
		<edge from-layer="107" from-port="2" to-layer="108" to-port="1"/>
		<edge from-layer="108" from-port="2" to-layer="109" to-port="0"/>
		<edge from-layer="109" from-port="1" to-layer="111" to-port="0"/>
		<edge from-layer="109" from-port="1" to-layer="116" to-port="0"/>
		<edge from-layer="109" from-port="1" to-layer="145" to-port="0"/>
		<edge from-layer="109" from-port="1" to-layer="126" to-port="0"/>
		<edge from-layer="110" from-port="0" to-layer="111" to-port="1"/>
		<edge from-layer="111" from-port="2" to-layer="113" to-port="0"/>
		<edge from-layer="112" from-port="0" to-layer="113" to-port="1"/>
		<edge from-layer="113" from-port="2" to-layer="114" to-port="0"/>
		<edge from-layer="114" from-port="1" to-layer="140" to-port="0"/>
		<edge from-layer="115" from-port="0" to-layer="116" to-port="1"/>
		<edge from-layer="116" from-port="2" to-layer="118" to-port="0"/>
		<edge from-layer="117" from-port="0" to-layer="118" to-port="1"/>
		<edge from-layer="118" from-port="2" to-layer="119" to-port="0"/>
		<edge from-layer="119" from-port="1" to-layer="121" to-port="0"/>
		<edge from-layer="120" from-port="0" to-layer="121" to-port="1"/>
		<edge from-layer="121" from-port="2" to-layer="123" to-port="0"/>
		<edge from-layer="122" from-port="0" to-layer="123" to-port="1"/>
		<edge from-layer="123" from-port="2" to-layer="124" to-port="0"/>
		<edge from-layer="124" from-port="1" to-layer="140" to-port="1"/>
		<edge from-layer="125" from-port="0" to-layer="126" to-port="1"/>
		<edge from-layer="126" from-port="2" to-layer="128" to-port="0"/>
		<edge from-layer="127" from-port="0" to-layer="128" to-port="1"/>
		<edge from-layer="128" from-port="2" to-layer="129" to-port="0"/>
		<edge from-layer="129" from-port="1" to-layer="131" to-port="0"/>
		<edge from-layer="130" from-port="0" to-layer="131" to-port="1"/>
		<edge from-layer="131" from-port="2" to-layer="133" to-port="0"/>
		<edge from-layer="132" from-port="0" to-layer="133" to-port="1"/>
		<edge from-layer="133" from-port="2" to-layer="134" to-port="0"/>
		<edge from-layer="134" from-port="1" to-layer="136" to-port="0"/>
		<edge from-layer="135" from-port="0" to-layer="136" to-port="1"/>
		<edge from-layer="136" from-port="2" to-layer="138" to-port="0"/>
		<edge from-layer="137" from-port="0" to-layer="138" to-port="1"/>
		<edge from-layer="138" from-port="2" to-layer="139" to-port="0"/>
		<edge from-layer="139" from-port="1" to-layer="140" to-port="2"/>
		<edge from-layer="140" from-port="3" to-layer="142" to-port="0"/>
		<edge from-layer="141" from-port="0" to-layer="142" to-port="1"/>
		<edge from-layer="142" from-port="2" to-layer="144" to-port="0"/>
		<edge from-layer="143" from-port="0" to-layer="144" to-port="1"/>
		<edge from-layer="144" from-port="2" to-layer="145" to-port="1"/>
		<edge from-layer="145" from-port="2" to-layer="146" to-port="0"/>
		<edge from-layer="146" from-port="1" to-layer="148" to-port="0"/>
		<edge from-layer="146" from-port="1" to-layer="153" to-port="0"/>
		<edge from-layer="146" from-port="1" to-layer="182" to-port="0"/>
		<edge from-layer="146" from-port="1" to-layer="163" to-port="0"/>
		<edge from-layer="147" from-port="0" to-layer="148" to-port="1"/>
		<edge from-layer="148" from-port="2" to-layer="150" to-port="0"/>
		<edge from-layer="149" from-port="0" to-layer="150" to-port="1"/>
		<edge from-layer="150" from-port="2" to-layer="151" to-port="0"/>
		<edge from-layer="151" from-port="1" to-layer="177" to-port="0"/>
		<edge from-layer="152" from-port="0" to-layer="153" to-port="1"/>
		<edge from-layer="153" from-port="2" to-layer="155" to-port="0"/>
		<edge from-layer="154" from-port="0" to-layer="155" to-port="1"/>
		<edge from-layer="155" from-port="2" to-layer="156" to-port="0"/>
		<edge from-layer="156" from-port="1" to-layer="158" to-port="0"/>
		<edge from-layer="157" from-port="0" to-layer="158" to-port="1"/>
		<edge from-layer="158" from-port="2" to-layer="160" to-port="0"/>
		<edge from-layer="159" from-port="0" to-layer="160" to-port="1"/>
		<edge from-layer="160" from-port="2" to-layer="161" to-port="0"/>
		<edge from-layer="161" from-port="1" to-layer="177" to-port="1"/>
		<edge from-layer="162" from-port="0" to-layer="163" to-port="1"/>
		<edge from-layer="163" from-port="2" to-layer="165" to-port="0"/>
		<edge from-layer="164" from-port="0" to-layer="165" to-port="1"/>
		<edge from-layer="165" from-port="2" to-layer="166" to-port="0"/>
		<edge from-layer="166" from-port="1" to-layer="168" to-port="0"/>
		<edge from-layer="167" from-port="0" to-layer="168" to-port="1"/>
		<edge from-layer="168" from-port="2" to-layer="170" to-port="0"/>
		<edge from-layer="169" from-port="0" to-layer="170" to-port="1"/>
		<edge from-layer="170" from-port="2" to-layer="171" to-port="0"/>
		<edge from-layer="171" from-port="1" to-layer="173" to-port="0"/>
		<edge from-layer="172" from-port="0" to-layer="173" to-port="1"/>
		<edge from-layer="173" from-port="2" to-layer="175" to-port="0"/>
		<edge from-layer="174" from-port="0" to-layer="175" to-port="1"/>
		<edge from-layer="175" from-port="2" to-layer="176" to-port="0"/>
		<edge from-layer="176" from-port="1" to-layer="177" to-port="2"/>
		<edge from-layer="177" from-port="3" to-layer="179" to-port="0"/>
		<edge from-layer="178" from-port="0" to-layer="179" to-port="1"/>
		<edge from-layer="179" from-port="2" to-layer="181" to-port="0"/>
		<edge from-layer="180" from-port="0" to-layer="181" to-port="1"/>
		<edge from-layer="181" from-port="2" to-layer="182" to-port="1"/>
		<edge from-layer="182" from-port="2" to-layer="183" to-port="0"/>
		<edge from-layer="183" from-port="1" to-layer="185" to-port="0"/>
		<edge from-layer="183" from-port="1" to-layer="219" to-port="0"/>
		<edge from-layer="183" from-port="1" to-layer="190" to-port="0"/>
		<edge from-layer="183" from-port="1" to-layer="200" to-port="0"/>
		<edge from-layer="184" from-port="0" to-layer="185" to-port="1"/>
		<edge from-layer="185" from-port="2" to-layer="187" to-port="0"/>
		<edge from-layer="186" from-port="0" to-layer="187" to-port="1"/>
		<edge from-layer="187" from-port="2" to-layer="188" to-port="0"/>
		<edge from-layer="188" from-port="1" to-layer="214" to-port="0"/>
		<edge from-layer="189" from-port="0" to-layer="190" to-port="1"/>
		<edge from-layer="190" from-port="2" to-layer="192" to-port="0"/>
		<edge from-layer="191" from-port="0" to-layer="192" to-port="1"/>
		<edge from-layer="192" from-port="2" to-layer="193" to-port="0"/>
		<edge from-layer="193" from-port="1" to-layer="195" to-port="0"/>
		<edge from-layer="194" from-port="0" to-layer="195" to-port="1"/>
		<edge from-layer="195" from-port="2" to-layer="197" to-port="0"/>
		<edge from-layer="196" from-port="0" to-layer="197" to-port="1"/>
		<edge from-layer="197" from-port="2" to-layer="198" to-port="0"/>
		<edge from-layer="198" from-port="1" to-layer="214" to-port="1"/>
		<edge from-layer="199" from-port="0" to-layer="200" to-port="1"/>
		<edge from-layer="200" from-port="2" to-layer="202" to-port="0"/>
		<edge from-layer="201" from-port="0" to-layer="202" to-port="1"/>
		<edge from-layer="202" from-port="2" to-layer="203" to-port="0"/>
		<edge from-layer="203" from-port="1" to-layer="205" to-port="0"/>
		<edge from-layer="204" from-port="0" to-layer="205" to-port="1"/>
		<edge from-layer="205" from-port="2" to-layer="207" to-port="0"/>
		<edge from-layer="206" from-port="0" to-layer="207" to-port="1"/>
		<edge from-layer="207" from-port="2" to-layer="208" to-port="0"/>
		<edge from-layer="208" from-port="1" to-layer="210" to-port="0"/>
		<edge from-layer="209" from-port="0" to-layer="210" to-port="1"/>
		<edge from-layer="210" from-port="2" to-layer="212" to-port="0"/>
		<edge from-layer="211" from-port="0" to-layer="212" to-port="1"/>
		<edge from-layer="212" from-port="2" to-layer="213" to-port="0"/>
		<edge from-layer="213" from-port="1" to-layer="214" to-port="2"/>
		<edge from-layer="214" from-port="3" to-layer="216" to-port="0"/>
		<edge from-layer="215" from-port="0" to-layer="216" to-port="1"/>
		<edge from-layer="216" from-port="2" to-layer="218" to-port="0"/>
		<edge from-layer="217" from-port="0" to-layer="218" to-port="1"/>
		<edge from-layer="218" from-port="2" to-layer="219" to-port="1"/>
		<edge from-layer="219" from-port="2" to-layer="220" to-port="0"/>
		<edge from-layer="220" from-port="1" to-layer="241" to-port="0"/>
		<edge from-layer="220" from-port="1" to-layer="227" to-port="0"/>
		<edge from-layer="220" from-port="1" to-layer="222" to-port="0"/>
		<edge from-layer="221" from-port="0" to-layer="222" to-port="1"/>
		<edge from-layer="222" from-port="2" to-layer="224" to-port="0"/>
		<edge from-layer="223" from-port="0" to-layer="224" to-port="1"/>
		<edge from-layer="224" from-port="2" to-layer="225" to-port="0"/>
		<edge from-layer="225" from-port="1" to-layer="242" to-port="0"/>
		<edge from-layer="226" from-port="0" to-layer="227" to-port="1"/>
		<edge from-layer="227" from-port="2" to-layer="229" to-port="0"/>
		<edge from-layer="228" from-port="0" to-layer="229" to-port="1"/>
		<edge from-layer="229" from-port="2" to-layer="230" to-port="0"/>
		<edge from-layer="230" from-port="1" to-layer="232" to-port="0"/>
		<edge from-layer="231" from-port="0" to-layer="232" to-port="1"/>
		<edge from-layer="232" from-port="2" to-layer="234" to-port="0"/>
		<edge from-layer="233" from-port="0" to-layer="234" to-port="1"/>
		<edge from-layer="234" from-port="2" to-layer="235" to-port="0"/>
		<edge from-layer="235" from-port="1" to-layer="237" to-port="0"/>
		<edge from-layer="236" from-port="0" to-layer="237" to-port="1"/>
		<edge from-layer="237" from-port="2" to-layer="239" to-port="0"/>
		<edge from-layer="238" from-port="0" to-layer="239" to-port="1"/>
		<edge from-layer="239" from-port="2" to-layer="240" to-port="0"/>
		<edge from-layer="240" from-port="1" to-layer="242" to-port="1"/>
		<edge from-layer="241" from-port="1" to-layer="242" to-port="2"/>
		<edge from-layer="242" from-port="3" to-layer="268" to-port="0"/>
		<edge from-layer="242" from-port="3" to-layer="249" to-port="0"/>
		<edge from-layer="242" from-port="3" to-layer="244" to-port="0"/>
		<edge from-layer="243" from-port="0" to-layer="244" to-port="1"/>
		<edge from-layer="244" from-port="2" to-layer="246" to-port="0"/>
		<edge from-layer="245" from-port="0" to-layer="246" to-port="1"/>
		<edge from-layer="246" from-port="2" to-layer="247" to-port="0"/>
		<edge from-layer="247" from-port="1" to-layer="263" to-port="0"/>
		<edge from-layer="248" from-port="0" to-layer="249" to-port="1"/>
		<edge from-layer="249" from-port="2" to-layer="251" to-port="0"/>
		<edge from-layer="250" from-port="0" to-layer="251" to-port="1"/>
		<edge from-layer="251" from-port="2" to-layer="252" to-port="0"/>
		<edge from-layer="252" from-port="1" to-layer="254" to-port="0"/>
		<edge from-layer="253" from-port="0" to-layer="254" to-port="1"/>
		<edge from-layer="254" from-port="2" to-layer="256" to-port="0"/>
		<edge from-layer="255" from-port="0" to-layer="256" to-port="1"/>
		<edge from-layer="256" from-port="2" to-layer="257" to-port="0"/>
		<edge from-layer="257" from-port="1" to-layer="259" to-port="0"/>
		<edge from-layer="258" from-port="0" to-layer="259" to-port="1"/>
		<edge from-layer="259" from-port="2" to-layer="261" to-port="0"/>
		<edge from-layer="260" from-port="0" to-layer="261" to-port="1"/>
		<edge from-layer="261" from-port="2" to-layer="262" to-port="0"/>
		<edge from-layer="262" from-port="1" to-layer="263" to-port="1"/>
		<edge from-layer="263" from-port="2" to-layer="265" to-port="0"/>
		<edge from-layer="264" from-port="0" to-layer="265" to-port="1"/>
		<edge from-layer="265" from-port="2" to-layer="267" to-port="0"/>
		<edge from-layer="266" from-port="0" to-layer="267" to-port="1"/>
		<edge from-layer="267" from-port="2" to-layer="268" to-port="1"/>
		<edge from-layer="268" from-port="2" to-layer="269" to-port="0"/>
		<edge from-layer="269" from-port="1" to-layer="271" to-port="0"/>
		<edge from-layer="269" from-port="1" to-layer="295" to-port="0"/>
		<edge from-layer="269" from-port="1" to-layer="276" to-port="0"/>
		<edge from-layer="270" from-port="0" to-layer="271" to-port="1"/>
		<edge from-layer="271" from-port="2" to-layer="273" to-port="0"/>
		<edge from-layer="272" from-port="0" to-layer="273" to-port="1"/>
		<edge from-layer="273" from-port="2" to-layer="274" to-port="0"/>
		<edge from-layer="274" from-port="1" to-layer="290" to-port="0"/>
		<edge from-layer="275" from-port="0" to-layer="276" to-port="1"/>
		<edge from-layer="276" from-port="2" to-layer="278" to-port="0"/>
		<edge from-layer="277" from-port="0" to-layer="278" to-port="1"/>
		<edge from-layer="278" from-port="2" to-layer="279" to-port="0"/>
		<edge from-layer="279" from-port="1" to-layer="281" to-port="0"/>
		<edge from-layer="280" from-port="0" to-layer="281" to-port="1"/>
		<edge from-layer="281" from-port="2" to-layer="283" to-port="0"/>
		<edge from-layer="282" from-port="0" to-layer="283" to-port="1"/>
		<edge from-layer="283" from-port="2" to-layer="284" to-port="0"/>
		<edge from-layer="284" from-port="1" to-layer="286" to-port="0"/>
		<edge from-layer="285" from-port="0" to-layer="286" to-port="1"/>
		<edge from-layer="286" from-port="2" to-layer="288" to-port="0"/>
		<edge from-layer="287" from-port="0" to-layer="288" to-port="1"/>
		<edge from-layer="288" from-port="2" to-layer="289" to-port="0"/>
		<edge from-layer="289" from-port="1" to-layer="290" to-port="1"/>
		<edge from-layer="290" from-port="2" to-layer="292" to-port="0"/>
		<edge from-layer="291" from-port="0" to-layer="292" to-port="1"/>
		<edge from-layer="292" from-port="2" to-layer="294" to-port="0"/>
		<edge from-layer="293" from-port="0" to-layer="294" to-port="1"/>
		<edge from-layer="294" from-port="2" to-layer="295" to-port="1"/>
		<edge from-layer="295" from-port="2" to-layer="296" to-port="0"/>
		<edge from-layer="296" from-port="1" to-layer="298" to-port="0"/>
		<edge from-layer="296" from-port="1" to-layer="303" to-port="0"/>
		<edge from-layer="296" from-port="1" to-layer="322" to-port="0"/>
		<edge from-layer="297" from-port="0" to-layer="298" to-port="1"/>
		<edge from-layer="298" from-port="2" to-layer="300" to-port="0"/>
		<edge from-layer="299" from-port="0" to-layer="300" to-port="1"/>
		<edge from-layer="300" from-port="2" to-layer="301" to-port="0"/>
		<edge from-layer="301" from-port="1" to-layer="317" to-port="0"/>
		<edge from-layer="302" from-port="0" to-layer="303" to-port="1"/>
		<edge from-layer="303" from-port="2" to-layer="305" to-port="0"/>
		<edge from-layer="304" from-port="0" to-layer="305" to-port="1"/>
		<edge from-layer="305" from-port="2" to-layer="306" to-port="0"/>
		<edge from-layer="306" from-port="1" to-layer="308" to-port="0"/>
		<edge from-layer="307" from-port="0" to-layer="308" to-port="1"/>
		<edge from-layer="308" from-port="2" to-layer="310" to-port="0"/>
		<edge from-layer="309" from-port="0" to-layer="310" to-port="1"/>
		<edge from-layer="310" from-port="2" to-layer="311" to-port="0"/>
		<edge from-layer="311" from-port="1" to-layer="313" to-port="0"/>
		<edge from-layer="312" from-port="0" to-layer="313" to-port="1"/>
		<edge from-layer="313" from-port="2" to-layer="315" to-port="0"/>
		<edge from-layer="314" from-port="0" to-layer="315" to-port="1"/>
		<edge from-layer="315" from-port="2" to-layer="316" to-port="0"/>
		<edge from-layer="316" from-port="1" to-layer="317" to-port="1"/>
		<edge from-layer="317" from-port="2" to-layer="319" to-port="0"/>
		<edge from-layer="318" from-port="0" to-layer="319" to-port="1"/>
		<edge from-layer="319" from-port="2" to-layer="321" to-port="0"/>
		<edge from-layer="320" from-port="0" to-layer="321" to-port="1"/>
		<edge from-layer="321" from-port="2" to-layer="322" to-port="1"/>
		<edge from-layer="322" from-port="2" to-layer="323" to-port="0"/>
		<edge from-layer="323" from-port="1" to-layer="325" to-port="0"/>
		<edge from-layer="323" from-port="1" to-layer="349" to-port="0"/>
		<edge from-layer="323" from-port="1" to-layer="330" to-port="0"/>
		<edge from-layer="324" from-port="0" to-layer="325" to-port="1"/>
		<edge from-layer="325" from-port="2" to-layer="327" to-port="0"/>
		<edge from-layer="326" from-port="0" to-layer="327" to-port="1"/>
		<edge from-layer="327" from-port="2" to-layer="328" to-port="0"/>
		<edge from-layer="328" from-port="1" to-layer="344" to-port="0"/>
		<edge from-layer="329" from-port="0" to-layer="330" to-port="1"/>
		<edge from-layer="330" from-port="2" to-layer="332" to-port="0"/>
		<edge from-layer="331" from-port="0" to-layer="332" to-port="1"/>
		<edge from-layer="332" from-port="2" to-layer="333" to-port="0"/>
		<edge from-layer="333" from-port="1" to-layer="335" to-port="0"/>
		<edge from-layer="334" from-port="0" to-layer="335" to-port="1"/>
		<edge from-layer="335" from-port="2" to-layer="337" to-port="0"/>
		<edge from-layer="336" from-port="0" to-layer="337" to-port="1"/>
		<edge from-layer="337" from-port="2" to-layer="338" to-port="0"/>
		<edge from-layer="338" from-port="1" to-layer="340" to-port="0"/>
		<edge from-layer="339" from-port="0" to-layer="340" to-port="1"/>
		<edge from-layer="340" from-port="2" to-layer="342" to-port="0"/>
		<edge from-layer="341" from-port="0" to-layer="342" to-port="1"/>
		<edge from-layer="342" from-port="2" to-layer="343" to-port="0"/>
		<edge from-layer="343" from-port="1" to-layer="344" to-port="1"/>
		<edge from-layer="344" from-port="2" to-layer="346" to-port="0"/>
		<edge from-layer="345" from-port="0" to-layer="346" to-port="1"/>
		<edge from-layer="346" from-port="2" to-layer="348" to-port="0"/>
		<edge from-layer="347" from-port="0" to-layer="348" to-port="1"/>
		<edge from-layer="348" from-port="2" to-layer="349" to-port="1"/>
		<edge from-layer="349" from-port="2" to-layer="350" to-port="0"/>
		<edge from-layer="350" from-port="1" to-layer="357" to-port="0"/>
		<edge from-layer="350" from-port="1" to-layer="352" to-port="0"/>
		<edge from-layer="350" from-port="1" to-layer="376" to-port="0"/>
		<edge from-layer="351" from-port="0" to-layer="352" to-port="1"/>
		<edge from-layer="352" from-port="2" to-layer="354" to-port="0"/>
		<edge from-layer="353" from-port="0" to-layer="354" to-port="1"/>
		<edge from-layer="354" from-port="2" to-layer="355" to-port="0"/>
		<edge from-layer="355" from-port="1" to-layer="371" to-port="0"/>
		<edge from-layer="356" from-port="0" to-layer="357" to-port="1"/>
		<edge from-layer="357" from-port="2" to-layer="359" to-port="0"/>
		<edge from-layer="358" from-port="0" to-layer="359" to-port="1"/>
		<edge from-layer="359" from-port="2" to-layer="360" to-port="0"/>
		<edge from-layer="360" from-port="1" to-layer="362" to-port="0"/>
		<edge from-layer="361" from-port="0" to-layer="362" to-port="1"/>
		<edge from-layer="362" from-port="2" to-layer="364" to-port="0"/>
		<edge from-layer="363" from-port="0" to-layer="364" to-port="1"/>
		<edge from-layer="364" from-port="2" to-layer="365" to-port="0"/>
		<edge from-layer="365" from-port="1" to-layer="367" to-port="0"/>
		<edge from-layer="366" from-port="0" to-layer="367" to-port="1"/>
		<edge from-layer="367" from-port="2" to-layer="369" to-port="0"/>
		<edge from-layer="368" from-port="0" to-layer="369" to-port="1"/>
		<edge from-layer="369" from-port="2" to-layer="370" to-port="0"/>
		<edge from-layer="370" from-port="1" to-layer="371" to-port="1"/>
		<edge from-layer="371" from-port="2" to-layer="373" to-port="0"/>
		<edge from-layer="372" from-port="0" to-layer="373" to-port="1"/>
		<edge from-layer="373" from-port="2" to-layer="375" to-port="0"/>
		<edge from-layer="374" from-port="0" to-layer="375" to-port="1"/>
		<edge from-layer="375" from-port="2" to-layer="376" to-port="1"/>
		<edge from-layer="376" from-port="2" to-layer="377" to-port="0"/>
		<edge from-layer="377" from-port="1" to-layer="403" to-port="0"/>
		<edge from-layer="377" from-port="1" to-layer="384" to-port="0"/>
		<edge from-layer="377" from-port="1" to-layer="379" to-port="0"/>
		<edge from-layer="378" from-port="0" to-layer="379" to-port="1"/>
		<edge from-layer="379" from-port="2" to-layer="381" to-port="0"/>
		<edge from-layer="380" from-port="0" to-layer="381" to-port="1"/>
		<edge from-layer="381" from-port="2" to-layer="382" to-port="0"/>
		<edge from-layer="382" from-port="1" to-layer="398" to-port="0"/>
		<edge from-layer="383" from-port="0" to-layer="384" to-port="1"/>
		<edge from-layer="384" from-port="2" to-layer="386" to-port="0"/>
		<edge from-layer="385" from-port="0" to-layer="386" to-port="1"/>
		<edge from-layer="386" from-port="2" to-layer="387" to-port="0"/>
		<edge from-layer="387" from-port="1" to-layer="389" to-port="0"/>
		<edge from-layer="388" from-port="0" to-layer="389" to-port="1"/>
		<edge from-layer="389" from-port="2" to-layer="391" to-port="0"/>
		<edge from-layer="390" from-port="0" to-layer="391" to-port="1"/>
		<edge from-layer="391" from-port="2" to-layer="392" to-port="0"/>
		<edge from-layer="392" from-port="1" to-layer="394" to-port="0"/>
		<edge from-layer="393" from-port="0" to-layer="394" to-port="1"/>
		<edge from-layer="394" from-port="2" to-layer="396" to-port="0"/>
		<edge from-layer="395" from-port="0" to-layer="396" to-port="1"/>
		<edge from-layer="396" from-port="2" to-layer="397" to-port="0"/>
		<edge from-layer="397" from-port="1" to-layer="398" to-port="1"/>
		<edge from-layer="398" from-port="2" to-layer="400" to-port="0"/>
		<edge from-layer="399" from-port="0" to-layer="400" to-port="1"/>
		<edge from-layer="400" from-port="2" to-layer="402" to-port="0"/>
		<edge from-layer="401" from-port="0" to-layer="402" to-port="1"/>
		<edge from-layer="402" from-port="2" to-layer="403" to-port="1"/>
		<edge from-layer="403" from-port="2" to-layer="404" to-port="0"/>
		<edge from-layer="404" from-port="1" to-layer="411" to-port="0"/>
		<edge from-layer="404" from-port="1" to-layer="430" to-port="0"/>
		<edge from-layer="404" from-port="1" to-layer="406" to-port="0"/>
		<edge from-layer="405" from-port="0" to-layer="406" to-port="1"/>
		<edge from-layer="406" from-port="2" to-layer="408" to-port="0"/>
		<edge from-layer="407" from-port="0" to-layer="408" to-port="1"/>
		<edge from-layer="408" from-port="2" to-layer="409" to-port="0"/>
		<edge from-layer="409" from-port="1" to-layer="425" to-port="0"/>
		<edge from-layer="410" from-port="0" to-layer="411" to-port="1"/>
		<edge from-layer="411" from-port="2" to-layer="413" to-port="0"/>
		<edge from-layer="412" from-port="0" to-layer="413" to-port="1"/>
		<edge from-layer="413" from-port="2" to-layer="414" to-port="0"/>
		<edge from-layer="414" from-port="1" to-layer="416" to-port="0"/>
		<edge from-layer="415" from-port="0" to-layer="416" to-port="1"/>
		<edge from-layer="416" from-port="2" to-layer="418" to-port="0"/>
		<edge from-layer="417" from-port="0" to-layer="418" to-port="1"/>
		<edge from-layer="418" from-port="2" to-layer="419" to-port="0"/>
		<edge from-layer="419" from-port="1" to-layer="421" to-port="0"/>
		<edge from-layer="420" from-port="0" to-layer="421" to-port="1"/>
		<edge from-layer="421" from-port="2" to-layer="423" to-port="0"/>
		<edge from-layer="422" from-port="0" to-layer="423" to-port="1"/>
		<edge from-layer="423" from-port="2" to-layer="424" to-port="0"/>
		<edge from-layer="424" from-port="1" to-layer="425" to-port="1"/>
		<edge from-layer="425" from-port="2" to-layer="427" to-port="0"/>
		<edge from-layer="426" from-port="0" to-layer="427" to-port="1"/>
		<edge from-layer="427" from-port="2" to-layer="429" to-port="0"/>
		<edge from-layer="428" from-port="0" to-layer="429" to-port="1"/>
		<edge from-layer="429" from-port="2" to-layer="430" to-port="1"/>
		<edge from-layer="430" from-port="2" to-layer="431" to-port="0"/>
		<edge from-layer="431" from-port="1" to-layer="433" to-port="0"/>
		<edge from-layer="431" from-port="1" to-layer="457" to-port="0"/>
		<edge from-layer="431" from-port="1" to-layer="438" to-port="0"/>
		<edge from-layer="432" from-port="0" to-layer="433" to-port="1"/>
		<edge from-layer="433" from-port="2" to-layer="435" to-port="0"/>
		<edge from-layer="434" from-port="0" to-layer="435" to-port="1"/>
		<edge from-layer="435" from-port="2" to-layer="436" to-port="0"/>
		<edge from-layer="436" from-port="1" to-layer="452" to-port="0"/>
		<edge from-layer="437" from-port="0" to-layer="438" to-port="1"/>
		<edge from-layer="438" from-port="2" to-layer="440" to-port="0"/>
		<edge from-layer="439" from-port="0" to-layer="440" to-port="1"/>
		<edge from-layer="440" from-port="2" to-layer="441" to-port="0"/>
		<edge from-layer="441" from-port="1" to-layer="443" to-port="0"/>
		<edge from-layer="442" from-port="0" to-layer="443" to-port="1"/>
		<edge from-layer="443" from-port="2" to-layer="445" to-port="0"/>
		<edge from-layer="444" from-port="0" to-layer="445" to-port="1"/>
		<edge from-layer="445" from-port="2" to-layer="446" to-port="0"/>
		<edge from-layer="446" from-port="1" to-layer="448" to-port="0"/>
		<edge from-layer="447" from-port="0" to-layer="448" to-port="1"/>
		<edge from-layer="448" from-port="2" to-layer="450" to-port="0"/>
		<edge from-layer="449" from-port="0" to-layer="450" to-port="1"/>
		<edge from-layer="450" from-port="2" to-layer="451" to-port="0"/>
		<edge from-layer="451" from-port="1" to-layer="452" to-port="1"/>
		<edge from-layer="452" from-port="2" to-layer="454" to-port="0"/>
		<edge from-layer="453" from-port="0" to-layer="454" to-port="1"/>
		<edge from-layer="454" from-port="2" to-layer="456" to-port="0"/>
		<edge from-layer="455" from-port="0" to-layer="456" to-port="1"/>
		<edge from-layer="456" from-port="2" to-layer="457" to-port="1"/>
		<edge from-layer="457" from-port="2" to-layer="458" to-port="0"/>
		<edge from-layer="458" from-port="1" to-layer="460" to-port="0"/>
		<edge from-layer="458" from-port="1" to-layer="465" to-port="0"/>
		<edge from-layer="458" from-port="1" to-layer="484" to-port="0"/>
		<edge from-layer="459" from-port="0" to-layer="460" to-port="1"/>
		<edge from-layer="460" from-port="2" to-layer="462" to-port="0"/>
		<edge from-layer="461" from-port="0" to-layer="462" to-port="1"/>
		<edge from-layer="462" from-port="2" to-layer="463" to-port="0"/>
		<edge from-layer="463" from-port="1" to-layer="479" to-port="0"/>
		<edge from-layer="464" from-port="0" to-layer="465" to-port="1"/>
		<edge from-layer="465" from-port="2" to-layer="467" to-port="0"/>
		<edge from-layer="466" from-port="0" to-layer="467" to-port="1"/>
		<edge from-layer="467" from-port="2" to-layer="468" to-port="0"/>
		<edge from-layer="468" from-port="1" to-layer="470" to-port="0"/>
		<edge from-layer="469" from-port="0" to-layer="470" to-port="1"/>
		<edge from-layer="470" from-port="2" to-layer="472" to-port="0"/>
		<edge from-layer="471" from-port="0" to-layer="472" to-port="1"/>
		<edge from-layer="472" from-port="2" to-layer="473" to-port="0"/>
		<edge from-layer="473" from-port="1" to-layer="475" to-port="0"/>
		<edge from-layer="474" from-port="0" to-layer="475" to-port="1"/>
		<edge from-layer="475" from-port="2" to-layer="477" to-port="0"/>
		<edge from-layer="476" from-port="0" to-layer="477" to-port="1"/>
		<edge from-layer="477" from-port="2" to-layer="478" to-port="0"/>
		<edge from-layer="478" from-port="1" to-layer="479" to-port="1"/>
		<edge from-layer="479" from-port="2" to-layer="481" to-port="0"/>
		<edge from-layer="480" from-port="0" to-layer="481" to-port="1"/>
		<edge from-layer="481" from-port="2" to-layer="483" to-port="0"/>
		<edge from-layer="482" from-port="0" to-layer="483" to-port="1"/>
		<edge from-layer="483" from-port="2" to-layer="484" to-port="1"/>
		<edge from-layer="484" from-port="2" to-layer="485" to-port="0"/>
		<edge from-layer="485" from-port="1" to-layer="511" to-port="0"/>
		<edge from-layer="485" from-port="1" to-layer="492" to-port="0"/>
		<edge from-layer="485" from-port="1" to-layer="487" to-port="0"/>
		<edge from-layer="486" from-port="0" to-layer="487" to-port="1"/>
		<edge from-layer="487" from-port="2" to-layer="489" to-port="0"/>
		<edge from-layer="488" from-port="0" to-layer="489" to-port="1"/>
		<edge from-layer="489" from-port="2" to-layer="490" to-port="0"/>
		<edge from-layer="490" from-port="1" to-layer="506" to-port="0"/>
		<edge from-layer="491" from-port="0" to-layer="492" to-port="1"/>
		<edge from-layer="492" from-port="2" to-layer="494" to-port="0"/>
		<edge from-layer="493" from-port="0" to-layer="494" to-port="1"/>
		<edge from-layer="494" from-port="2" to-layer="495" to-port="0"/>
		<edge from-layer="495" from-port="1" to-layer="497" to-port="0"/>
		<edge from-layer="496" from-port="0" to-layer="497" to-port="1"/>
		<edge from-layer="497" from-port="2" to-layer="499" to-port="0"/>
		<edge from-layer="498" from-port="0" to-layer="499" to-port="1"/>
		<edge from-layer="499" from-port="2" to-layer="500" to-port="0"/>
		<edge from-layer="500" from-port="1" to-layer="502" to-port="0"/>
		<edge from-layer="501" from-port="0" to-layer="502" to-port="1"/>
		<edge from-layer="502" from-port="2" to-layer="504" to-port="0"/>
		<edge from-layer="503" from-port="0" to-layer="504" to-port="1"/>
		<edge from-layer="504" from-port="2" to-layer="505" to-port="0"/>
		<edge from-layer="505" from-port="1" to-layer="506" to-port="1"/>
		<edge from-layer="506" from-port="2" to-layer="508" to-port="0"/>
		<edge from-layer="507" from-port="0" to-layer="508" to-port="1"/>
		<edge from-layer="508" from-port="2" to-layer="510" to-port="0"/>
		<edge from-layer="509" from-port="0" to-layer="510" to-port="1"/>
		<edge from-layer="510" from-port="2" to-layer="511" to-port="1"/>
		<edge from-layer="511" from-port="2" to-layer="512" to-port="0"/>
		<edge from-layer="512" from-port="1" to-layer="534" to-port="0"/>
		<edge from-layer="512" from-port="1" to-layer="548" to-port="0"/>
		<edge from-layer="512" from-port="1" to-layer="524" to-port="0"/>
		<edge from-layer="512" from-port="1" to-layer="514" to-port="0"/>
		<edge from-layer="513" from-port="0" to-layer="514" to-port="1"/>
		<edge from-layer="514" from-port="2" to-layer="516" to-port="0"/>
		<edge from-layer="515" from-port="0" to-layer="516" to-port="1"/>
		<edge from-layer="516" from-port="2" to-layer="517" to-port="0"/>
		<edge from-layer="517" from-port="1" to-layer="519" to-port="0"/>
		<edge from-layer="518" from-port="0" to-layer="519" to-port="1"/>
		<edge from-layer="519" from-port="2" to-layer="521" to-port="0"/>
		<edge from-layer="520" from-port="0" to-layer="521" to-port="1"/>
		<edge from-layer="521" from-port="2" to-layer="522" to-port="0"/>
		<edge from-layer="522" from-port="1" to-layer="549" to-port="0"/>
		<edge from-layer="523" from-port="0" to-layer="524" to-port="1"/>
		<edge from-layer="524" from-port="2" to-layer="526" to-port="0"/>
		<edge from-layer="525" from-port="0" to-layer="526" to-port="1"/>
		<edge from-layer="526" from-port="2" to-layer="527" to-port="0"/>
		<edge from-layer="527" from-port="1" to-layer="529" to-port="0"/>
		<edge from-layer="528" from-port="0" to-layer="529" to-port="1"/>
		<edge from-layer="529" from-port="2" to-layer="531" to-port="0"/>
		<edge from-layer="530" from-port="0" to-layer="531" to-port="1"/>
		<edge from-layer="531" from-port="2" to-layer="532" to-port="0"/>
		<edge from-layer="532" from-port="1" to-layer="549" to-port="1"/>
		<edge from-layer="533" from-port="0" to-layer="534" to-port="1"/>
		<edge from-layer="534" from-port="2" to-layer="536" to-port="0"/>
		<edge from-layer="535" from-port="0" to-layer="536" to-port="1"/>
		<edge from-layer="536" from-port="2" to-layer="537" to-port="0"/>
		<edge from-layer="537" from-port="1" to-layer="539" to-port="0"/>
		<edge from-layer="538" from-port="0" to-layer="539" to-port="1"/>
		<edge from-layer="539" from-port="2" to-layer="541" to-port="0"/>
		<edge from-layer="540" from-port="0" to-layer="541" to-port="1"/>
		<edge from-layer="541" from-port="2" to-layer="542" to-port="0"/>
		<edge from-layer="542" from-port="1" to-layer="544" to-port="0"/>
		<edge from-layer="543" from-port="0" to-layer="544" to-port="1"/>
		<edge from-layer="544" from-port="2" to-layer="546" to-port="0"/>
		<edge from-layer="545" from-port="0" to-layer="546" to-port="1"/>
		<edge from-layer="546" from-port="2" to-layer="547" to-port="0"/>
		<edge from-layer="547" from-port="1" to-layer="549" to-port="2"/>
		<edge from-layer="548" from-port="1" to-layer="549" to-port="3"/>
		<edge from-layer="549" from-port="4" to-layer="551" to-port="0"/>
		<edge from-layer="549" from-port="4" to-layer="575" to-port="0"/>
		<edge from-layer="549" from-port="4" to-layer="556" to-port="0"/>
		<edge from-layer="550" from-port="0" to-layer="551" to-port="1"/>
		<edge from-layer="551" from-port="2" to-layer="553" to-port="0"/>
		<edge from-layer="552" from-port="0" to-layer="553" to-port="1"/>
		<edge from-layer="553" from-port="2" to-layer="554" to-port="0"/>
		<edge from-layer="554" from-port="1" to-layer="570" to-port="0"/>
		<edge from-layer="555" from-port="0" to-layer="556" to-port="1"/>
		<edge from-layer="556" from-port="2" to-layer="558" to-port="0"/>
		<edge from-layer="557" from-port="0" to-layer="558" to-port="1"/>
		<edge from-layer="558" from-port="2" to-layer="559" to-port="0"/>
		<edge from-layer="559" from-port="1" to-layer="561" to-port="0"/>
		<edge from-layer="560" from-port="0" to-layer="561" to-port="1"/>
		<edge from-layer="561" from-port="2" to-layer="563" to-port="0"/>
		<edge from-layer="562" from-port="0" to-layer="563" to-port="1"/>
		<edge from-layer="563" from-port="2" to-layer="564" to-port="0"/>
		<edge from-layer="564" from-port="1" to-layer="566" to-port="0"/>
		<edge from-layer="565" from-port="0" to-layer="566" to-port="1"/>
		<edge from-layer="566" from-port="2" to-layer="568" to-port="0"/>
		<edge from-layer="567" from-port="0" to-layer="568" to-port="1"/>
		<edge from-layer="568" from-port="2" to-layer="569" to-port="0"/>
		<edge from-layer="569" from-port="1" to-layer="570" to-port="1"/>
		<edge from-layer="570" from-port="2" to-layer="572" to-port="0"/>
		<edge from-layer="571" from-port="0" to-layer="572" to-port="1"/>
		<edge from-layer="572" from-port="2" to-layer="574" to-port="0"/>
		<edge from-layer="573" from-port="0" to-layer="574" to-port="1"/>
		<edge from-layer="574" from-port="2" to-layer="575" to-port="1"/>
		<edge from-layer="575" from-port="2" to-layer="576" to-port="0"/>
		<edge from-layer="576" from-port="1" to-layer="602" to-port="0"/>
		<edge from-layer="576" from-port="1" to-layer="583" to-port="0"/>
		<edge from-layer="576" from-port="1" to-layer="578" to-port="0"/>
		<edge from-layer="577" from-port="0" to-layer="578" to-port="1"/>
		<edge from-layer="578" from-port="2" to-layer="580" to-port="0"/>
		<edge from-layer="579" from-port="0" to-layer="580" to-port="1"/>
		<edge from-layer="580" from-port="2" to-layer="581" to-port="0"/>
		<edge from-layer="581" from-port="1" to-layer="597" to-port="0"/>
		<edge from-layer="582" from-port="0" to-layer="583" to-port="1"/>
		<edge from-layer="583" from-port="2" to-layer="585" to-port="0"/>
		<edge from-layer="584" from-port="0" to-layer="585" to-port="1"/>
		<edge from-layer="585" from-port="2" to-layer="586" to-port="0"/>
		<edge from-layer="586" from-port="1" to-layer="588" to-port="0"/>
		<edge from-layer="587" from-port="0" to-layer="588" to-port="1"/>
		<edge from-layer="588" from-port="2" to-layer="590" to-port="0"/>
		<edge from-layer="589" from-port="0" to-layer="590" to-port="1"/>
		<edge from-layer="590" from-port="2" to-layer="591" to-port="0"/>
		<edge from-layer="591" from-port="1" to-layer="593" to-port="0"/>
		<edge from-layer="592" from-port="0" to-layer="593" to-port="1"/>
		<edge from-layer="593" from-port="2" to-layer="595" to-port="0"/>
		<edge from-layer="594" from-port="0" to-layer="595" to-port="1"/>
		<edge from-layer="595" from-port="2" to-layer="596" to-port="0"/>
		<edge from-layer="596" from-port="1" to-layer="597" to-port="1"/>
		<edge from-layer="597" from-port="2" to-layer="599" to-port="0"/>
		<edge from-layer="598" from-port="0" to-layer="599" to-port="1"/>
		<edge from-layer="599" from-port="2" to-layer="601" to-port="0"/>
		<edge from-layer="600" from-port="0" to-layer="601" to-port="1"/>
		<edge from-layer="601" from-port="2" to-layer="602" to-port="1"/>
		<edge from-layer="602" from-port="2" to-layer="603" to-port="0"/>
		<edge from-layer="603" from-port="1" to-layer="629" to-port="0"/>
		<edge from-layer="603" from-port="1" to-layer="610" to-port="0"/>
		<edge from-layer="603" from-port="1" to-layer="605" to-port="0"/>
		<edge from-layer="604" from-port="0" to-layer="605" to-port="1"/>
		<edge from-layer="605" from-port="2" to-layer="607" to-port="0"/>
		<edge from-layer="606" from-port="0" to-layer="607" to-port="1"/>
		<edge from-layer="607" from-port="2" to-layer="608" to-port="0"/>
		<edge from-layer="608" from-port="1" to-layer="624" to-port="0"/>
		<edge from-layer="609" from-port="0" to-layer="610" to-port="1"/>
		<edge from-layer="610" from-port="2" to-layer="612" to-port="0"/>
		<edge from-layer="611" from-port="0" to-layer="612" to-port="1"/>
		<edge from-layer="612" from-port="2" to-layer="613" to-port="0"/>
		<edge from-layer="613" from-port="1" to-layer="615" to-port="0"/>
		<edge from-layer="614" from-port="0" to-layer="615" to-port="1"/>
		<edge from-layer="615" from-port="2" to-layer="617" to-port="0"/>
		<edge from-layer="616" from-port="0" to-layer="617" to-port="1"/>
		<edge from-layer="617" from-port="2" to-layer="618" to-port="0"/>
		<edge from-layer="618" from-port="1" to-layer="620" to-port="0"/>
		<edge from-layer="619" from-port="0" to-layer="620" to-port="1"/>
		<edge from-layer="620" from-port="2" to-layer="622" to-port="0"/>
		<edge from-layer="621" from-port="0" to-layer="622" to-port="1"/>
		<edge from-layer="622" from-port="2" to-layer="623" to-port="0"/>
		<edge from-layer="623" from-port="1" to-layer="624" to-port="1"/>
		<edge from-layer="624" from-port="2" to-layer="626" to-port="0"/>
		<edge from-layer="625" from-port="0" to-layer="626" to-port="1"/>
		<edge from-layer="626" from-port="2" to-layer="628" to-port="0"/>
		<edge from-layer="627" from-port="0" to-layer="628" to-port="1"/>
		<edge from-layer="628" from-port="2" to-layer="629" to-port="1"/>
		<edge from-layer="629" from-port="2" to-layer="630" to-port="0"/>
		<edge from-layer="630" from-port="1" to-layer="632" to-port="0"/>
		<edge from-layer="630" from-port="1" to-layer="637" to-port="0"/>
		<edge from-layer="630" from-port="1" to-layer="656" to-port="0"/>
		<edge from-layer="631" from-port="0" to-layer="632" to-port="1"/>
		<edge from-layer="632" from-port="2" to-layer="634" to-port="0"/>
		<edge from-layer="633" from-port="0" to-layer="634" to-port="1"/>
		<edge from-layer="634" from-port="2" to-layer="635" to-port="0"/>
		<edge from-layer="635" from-port="1" to-layer="651" to-port="0"/>
		<edge from-layer="636" from-port="0" to-layer="637" to-port="1"/>
		<edge from-layer="637" from-port="2" to-layer="639" to-port="0"/>
		<edge from-layer="638" from-port="0" to-layer="639" to-port="1"/>
		<edge from-layer="639" from-port="2" to-layer="640" to-port="0"/>
		<edge from-layer="640" from-port="1" to-layer="642" to-port="0"/>
		<edge from-layer="641" from-port="0" to-layer="642" to-port="1"/>
		<edge from-layer="642" from-port="2" to-layer="644" to-port="0"/>
		<edge from-layer="643" from-port="0" to-layer="644" to-port="1"/>
		<edge from-layer="644" from-port="2" to-layer="645" to-port="0"/>
		<edge from-layer="645" from-port="1" to-layer="647" to-port="0"/>
		<edge from-layer="646" from-port="0" to-layer="647" to-port="1"/>
		<edge from-layer="647" from-port="2" to-layer="649" to-port="0"/>
		<edge from-layer="648" from-port="0" to-layer="649" to-port="1"/>
		<edge from-layer="649" from-port="2" to-layer="650" to-port="0"/>
		<edge from-layer="650" from-port="1" to-layer="651" to-port="1"/>
		<edge from-layer="651" from-port="2" to-layer="653" to-port="0"/>
		<edge from-layer="652" from-port="0" to-layer="653" to-port="1"/>
		<edge from-layer="653" from-port="2" to-layer="655" to-port="0"/>
		<edge from-layer="654" from-port="0" to-layer="655" to-port="1"/>
		<edge from-layer="655" from-port="2" to-layer="656" to-port="1"/>
		<edge from-layer="656" from-port="2" to-layer="657" to-port="0"/>
		<edge from-layer="657" from-port="1" to-layer="659" to-port="0"/>
		<edge from-layer="657" from-port="1" to-layer="683" to-port="0"/>
		<edge from-layer="657" from-port="1" to-layer="664" to-port="0"/>
		<edge from-layer="658" from-port="0" to-layer="659" to-port="1"/>
		<edge from-layer="659" from-port="2" to-layer="661" to-port="0"/>
		<edge from-layer="660" from-port="0" to-layer="661" to-port="1"/>
		<edge from-layer="661" from-port="2" to-layer="662" to-port="0"/>
		<edge from-layer="662" from-port="1" to-layer="678" to-port="0"/>
		<edge from-layer="663" from-port="0" to-layer="664" to-port="1"/>
		<edge from-layer="664" from-port="2" to-layer="666" to-port="0"/>
		<edge from-layer="665" from-port="0" to-layer="666" to-port="1"/>
		<edge from-layer="666" from-port="2" to-layer="667" to-port="0"/>
		<edge from-layer="667" from-port="1" to-layer="669" to-port="0"/>
		<edge from-layer="668" from-port="0" to-layer="669" to-port="1"/>
		<edge from-layer="669" from-port="2" to-layer="671" to-port="0"/>
		<edge from-layer="670" from-port="0" to-layer="671" to-port="1"/>
		<edge from-layer="671" from-port="2" to-layer="672" to-port="0"/>
		<edge from-layer="672" from-port="1" to-layer="674" to-port="0"/>
		<edge from-layer="673" from-port="0" to-layer="674" to-port="1"/>
		<edge from-layer="674" from-port="2" to-layer="676" to-port="0"/>
		<edge from-layer="675" from-port="0" to-layer="676" to-port="1"/>
		<edge from-layer="676" from-port="2" to-layer="677" to-port="0"/>
		<edge from-layer="677" from-port="1" to-layer="678" to-port="1"/>
		<edge from-layer="678" from-port="2" to-layer="680" to-port="0"/>
		<edge from-layer="679" from-port="0" to-layer="680" to-port="1"/>
		<edge from-layer="680" from-port="2" to-layer="682" to-port="0"/>
		<edge from-layer="681" from-port="0" to-layer="682" to-port="1"/>
		<edge from-layer="682" from-port="2" to-layer="683" to-port="1"/>
		<edge from-layer="683" from-port="2" to-layer="684" to-port="0"/>
		<edge from-layer="684" from-port="1" to-layer="710" to-port="0"/>
		<edge from-layer="684" from-port="1" to-layer="691" to-port="0"/>
		<edge from-layer="684" from-port="1" to-layer="686" to-port="0"/>
		<edge from-layer="685" from-port="0" to-layer="686" to-port="1"/>
		<edge from-layer="686" from-port="2" to-layer="688" to-port="0"/>
		<edge from-layer="687" from-port="0" to-layer="688" to-port="1"/>
		<edge from-layer="688" from-port="2" to-layer="689" to-port="0"/>
		<edge from-layer="689" from-port="1" to-layer="705" to-port="0"/>
		<edge from-layer="690" from-port="0" to-layer="691" to-port="1"/>
		<edge from-layer="691" from-port="2" to-layer="693" to-port="0"/>
		<edge from-layer="692" from-port="0" to-layer="693" to-port="1"/>
		<edge from-layer="693" from-port="2" to-layer="694" to-port="0"/>
		<edge from-layer="694" from-port="1" to-layer="696" to-port="0"/>
		<edge from-layer="695" from-port="0" to-layer="696" to-port="1"/>
		<edge from-layer="696" from-port="2" to-layer="698" to-port="0"/>
		<edge from-layer="697" from-port="0" to-layer="698" to-port="1"/>
		<edge from-layer="698" from-port="2" to-layer="699" to-port="0"/>
		<edge from-layer="699" from-port="1" to-layer="701" to-port="0"/>
		<edge from-layer="700" from-port="0" to-layer="701" to-port="1"/>
		<edge from-layer="701" from-port="2" to-layer="703" to-port="0"/>
		<edge from-layer="702" from-port="0" to-layer="703" to-port="1"/>
		<edge from-layer="703" from-port="2" to-layer="704" to-port="0"/>
		<edge from-layer="704" from-port="1" to-layer="705" to-port="1"/>
		<edge from-layer="705" from-port="2" to-layer="707" to-port="0"/>
		<edge from-layer="706" from-port="0" to-layer="707" to-port="1"/>
		<edge from-layer="707" from-port="2" to-layer="709" to-port="0"/>
		<edge from-layer="708" from-port="0" to-layer="709" to-port="1"/>
		<edge from-layer="709" from-port="2" to-layer="710" to-port="1"/>
		<edge from-layer="710" from-port="2" to-layer="711" to-port="0"/>
		<edge from-layer="711" from-port="1" to-layer="713" to-port="0"/>
		<edge from-layer="712" from-port="0" to-layer="713" to-port="1"/>
		<edge from-layer="713" from-port="2" to-layer="715" to-port="0"/>
		<edge from-layer="714" from-port="0" to-layer="715" to-port="1"/>
		<edge from-layer="715" from-port="2" to-layer="717" to-port="0"/>
		<edge from-layer="716" from-port="0" to-layer="717" to-port="1"/>
		<edge from-layer="717" from-port="2" to-layer="719" to-port="0"/>
		<edge from-layer="717" from-port="2" to-layer="728" to-port="0"/>
		<edge from-layer="718" from-port="0" to-layer="719" to-port="1"/>
		<edge from-layer="719" from-port="2" to-layer="721" to-port="0"/>
		<edge from-layer="720" from-port="0" to-layer="721" to-port="1"/>
		<edge from-layer="721" from-port="2" to-layer="723" to-port="0"/>
		<edge from-layer="722" from-port="0" to-layer="723" to-port="1"/>
		<edge from-layer="723" from-port="2" to-layer="725" to-port="0"/>
		<edge from-layer="724" from-port="0" to-layer="725" to-port="1"/>
		<edge from-layer="725" from-port="2" to-layer="727" to-port="0"/>
		<edge from-layer="726" from-port="0" to-layer="727" to-port="1"/>
		<edge from-layer="727" from-port="2" to-layer="730" to-port="0"/>
		<edge from-layer="728" from-port="1" to-layer="729" to-port="0"/>
		<edge from-layer="729" from-port="1" to-layer="730" to-port="1"/>
		<edge from-layer="730" from-port="2" to-layer="732" to-port="0"/>
		<edge from-layer="731" from-port="0" to-layer="732" to-port="1"/>
		<edge from-layer="732" from-port="2" to-layer="733" to-port="0"/>
	</edges>
	<meta_data>
		<MO_version value="2021.4.0-3839-cd81789d294-releases/2021/4"/>
		<cli_parameters>
			<caffe_parser_path value="DIR"/>
			<data_type value="FP16"/>
			<disable_nhwc_to_nchw value="False"/>
			<disable_omitting_optional value="False"/>
			<disable_resnet_optimization value="False"/>
			<disable_weights_compression value="False"/>
			<enable_concat_optimization value="False"/>
			<enable_flattening_nested_params value="False"/>
			<enable_ssd_gluoncv value="False"/>
			<extensions value="DIR"/>
			<framework value="tf"/>
			<freeze_placeholder_with_value value="{'phase_train': 'False'}"/>
			<generate_deprecated_IR_V7 value="False"/>
			<input value="image_batch,phase_train"/>
			<input_model value="DIR/20180408-102900.pb"/>
			<input_model_is_text value="False"/>
			<input_shape value="[1,160,160,3],[1]"/>
			<k value="DIR/CustomLayersMapping.xml"/>
			<keep_shape_ops value="True"/>
			<legacy_ir_generation value="False"/>
			<legacy_mxnet_model value="False"/>
			<log_level value="ERROR"/>
			<mean_scale_values value="{'image_batch': {'mean': array([127.5, 127.5, 127.5]), 'scale': array([128.])}}"/>
			<mean_values value="image_batch[127.5,127.5,127.5]"/>
			<model_name value="facenet-20180408-102900"/>
			<output value="['embeddings']"/>
			<output_dir value="DIR"/>
			<placeholder_data_types value="{}"/>
			<placeholder_shapes value="{'image_batch': array([  1, 160, 160,   3]), 'phase_train': array([1])}"/>
			<progress value="False"/>
			<remove_memory value="False"/>
			<remove_output_softmax value="False"/>
			<reverse_input_channels value="True"/>
			<save_params_from_nd value="False"/>
			<scale_values value="image_batch[128.0]"/>
			<silent value="False"/>
			<static_shape value="False"/>
			<stream_output value="False"/>
			<transform value=""/>
			<unset unset_cli_parameters="batch, counts, disable_fusing, disable_gfusing, finegrain_fusing, input_checkpoint, input_meta_graph, input_proto, input_symbol, mean_file, mean_file_offsets, move_to_preprocess, nd_prefix_name, pretrained_model_name, saved_model_dir, saved_model_tags, scale, tensorboard_logdir, tensorflow_custom_layer_libraries, tensorflow_custom_operations_config_update, tensorflow_object_detection_api_pipeline_config, tensorflow_use_custom_operations_config, transformations_config"/>
		</cli_parameters>
	</meta_data>
</net>
